nTupleAnalysis/pytorchModels/FvT_HCR+attention_8_np1052_seed0_lr0.01_epochs20_offset2_epoch20_before_finetuning.pkl (torch, 456376 bytes, 230 tensors)

inputEmbed.ancillaryEmbed.m f4 [1, 1, 1, 4]
000000 28 32 e0 40 91 08 14 3f cf 6a 40 40 6b bd 80 3f
       7.0061226 0.5782557 3.006519 1.0057806

inputEmbed.ancillaryEmbed.s f4 [1, 1, 1, 4]
000000 ca 26 5b 3f f2 94 00 3f c3 f9 47 40 e2 3a 54 40
       0.8560606 0.5022727 3.1246192 3.316094

inputEmbed.ancillaryEmbed.conv.module.weight f4 [4, 4, 1]
000000 09 5a dd bd 1a 86 b9 3d 1f 16 fc bc ad 7a 3a be
       -0.108081885 0.09058781 -0.030772267 -0.1821086
000010 ea 39 3e 3d 03 8b e4 3d 62 e8 f5 bd 6f 92 8a 3e
       0.04644195 0.11159327 -0.12007214 0.27064845
000020 7f b4 1d bc 84 35 1e bf 7d 96 73 be 20 24 77 bc
       -0.009625553 -0.6180041 -0.23787875 -0.015084296
000030 4c 5b b9 bf 04 1b 05 be ac 65 ad 3c 4c 13 43 3d
       -1.4480987 -0.12998587 0.021166645 0.047625825

inputEmbed.jetEmbed.m f4 [1, 1, 1, 4]
000000 a3 c6 8f 40 bd e9 fe 3e 24 90 6c 3f a4 55 29 40
       4.4929976 0.49787703 0.9240744 2.645852

inputEmbed.jetEmbed.s f4 [1, 1, 1, 4]
000000 9b f5 e1 3e af cb 67 3f a2 d5 46 3f 91 4e bb 3e
       0.44132695 0.9054517 0.7766973 0.3658338

inputEmbed.jetEmbed.conv.bias f4 [1, 8, 1]
000000 7b a2 87 3f 3b 62 0c 3f f4 7f c1 bf 8e c5 b2 3e
       1.059646 0.5483739 -1.5117173 0.34916347
000010 a7 40 1f be cc d7 ee bf 30 ab 7c 3f 71 eb 05 3e
       -0.15552007 -1.8659606 0.9869871 0.13078095

inputEmbed.jetEmbed.conv.module.weight f4 [4, 4, 1]
000000 17 95 27 40 69 09 04 bd 25 cd eb 3e 1c da 03 c0
       2.6184747 -0.032235537 0.4605495 -2.0601873
000010 39 29 4e be 10 9c 44 be 10 e6 d6 3e fe 1f 55 40
       -0.20132913 -0.19200158 0.419724 3.3300776
000020 7f b4 62 3f ce 3d 4c bd b4 68 b2 3e 79 8c 8a bf
       0.88556665 -0.04986363 0.34845507 -1.0824119
000030 3b e5 94 bf 58 06 0a 3d 58 c6 d2 bd 0f b5 46 3f
       -1.1632456 0.033697456 -0.10291737 0.77620023

inputEmbed.jetConv.m f4 [1, 1, 1, 8]
000000 fe ac 84 3f b6 d9 9d 3f e2 cd 22 be 90 ee 35 3f
       1.0365293 1.2332065 -0.1589885 0.7106714
000010 4d 5a b3 3e 76 7c 4a 3e 56 ce 63 3f e3 1b 16 3f
       0.35029832 0.1977404 0.8898672 0.586363

inputEmbed.jetConv.s f4 [1, 1, 1, 8]
000000 fe f9 a4 3f 46 91 0a 40 be 76 6c 3e 39 b4 88 3f
       1.2888792 2.1651168 0.23092172 1.068
000010 68 a0 3f 3f 5e 9a 57 3f 42 7b 63 3f c7 82 7d 3f
       0.74854136 0.8421992 0.8885995 0.99027675

inputEmbed.jetConv.conv.bias f4 [1, 8, 1]
000000 de f6 1f bf ae 70 8b 3f 15 fc 05 3f 46 d4 04 40
       -0.62486064 1.0893762 0.5233777 2.0754561
000010 f4 63 1c bf 29 89 f9 be fa 58 10 bf 4a d4 0c be
       -0.61090016 -0.48737457 -0.5638577 -0.13752857

inputEmbed.jetConv.conv.module.weight f4 [4, 8, 1]
000000 de 94 83 bf 7e 1a a5 be e1 57 0d bf 46 12 1a c0
       -1.0279806 -0.32246774 -0.5521222 -2.4073653
000010 8a ed 28 3f 4e 10 81 3e d8 3d b8 bd ae 7a a0 3f
       0.65987456 0.25207752 -0.08996171 1.2537439
000020 5c 6f 89 3f af bc 4f be 5e 1e 83 3e 73 70 ab be
       1.0737109 -0.20286821 0.25609106 -0.3348423
000030 fe ca a8 bf db 7e df be bb e3 b7 3f b8 e8 35 bd
       -1.3186948 -0.4365147 1.4366373 -0.04441139
000040 4b 14 1b be 0b 75 0a 3f a4 19 50 bf 1f ea e8 3e
       -0.1514446 0.54084843 -0.81289124 0.4549112
000050 1f cf 22 3f 5f 2b 56 bf 83 14 3c 3f 6f a7 ca be
       0.6359729 -0.8365993 0.734688 -0.39580867
000060 b8 88 8c 3f 0b b6 ba bf a2 c4 57 be c6 07 f0 bd
       1.0979223 -1.4586805 -0.21071103 -0.11720233
000070 f5 e0 3c be 48 b5 59 be 1b f1 34 3e 60 63 25 3c
       -0.1844519 -0.2126056 0.176701 0.010094494

inputEmbed.othJetEmbed.m f4 [1, 1, 1, 4]
000000 c0 97 89 40 a9 4a cb 3e a7 a4 20 40 71 d2 b9 3f
       4.299774 0.397054 2.5100496 1.4517347

inputEmbed.othJetEmbed.s f4 [1, 1, 1, 4]
000000 64 e8 17 3f fe 73 90 3f 46 41 e7 3e 04 62 4b 3f
       0.59338975 1.1285398 0.45166987 0.79446435

inputEmbed.othJetEmbed.conv.bias f4 [1, 8, 1]
000000 54 25 b1 3e be 65 30 3e 82 8a ce bf 49 e5 de be
       0.34598792 0.17226312 -1.6136019 -0.43534306
000010 be 62 2d 3f e2 89 85 3f f9 b8 82 3f 40 67 48 3d
       0.67728794 1.0432703 1.0212699 0.048926592

inputEmbed.othJetEmbed.conv.module.weight f4 [4, 4, 1]
000000 1a ca e4 3f 98 a0 08 bd b4 b7 0e bf 64 1b 2c bf
       1.7874177 -0.03335628 -0.5574906 -0.67229295
000010 cd c4 c7 3f 44 32 97 3a 06 a5 84 bf ab e5 b6 bc
       1.5606934 0.0011535366 -1.0362861 -0.022326311
000020 93 f2 a4 bf 7d c0 4c 3e 1b 39 37 40 f7 54 0f 40
       -1.2886528 0.19995303 2.8628604 2.2395608
000030 a2 f2 19 40 b7 a2 3f be 34 0d df 3f 13 37 31 bf
       2.4054341 -0.18714415 1.7425904 -0.6922466

inputEmbed.othJetConv.m f4 [1, 1, 1, 8]
000000 85 c8 d8 3e b3 0c 8f 3e fc 91 e1 3e 3b ab 84 3f
       0.42340484 0.27939376 0.4405669 1.0364755
000010 b0 10 25 3f 84 86 5c 3f cc ee d9 3f b8 67 a9 3f
       0.6447859 0.86142755 1.7026 1.3234777

inputEmbed.othJetConv.s f4 [1, 1, 1, 8]
000000 55 ad 51 3f 8b f7 1c 3f a9 d5 88 3f d3 db 04 40
       0.8190511 0.6131522 1.0690204 2.075917
000010 e2 c4 33 3f 7c 35 46 3f fb 32 2f 40 1e f7 01 40
       0.70222294 0.7742536 2.7374866 2.0307078

inputEmbed.othJetConv.conv.bias f4 [1, 8, 1]
000000 a5 1a 6a 3f 52 09 10 40 93 8a 63 bd df 53 8a 3f
       0.91446906 2.2505689 -0.055552077 1.0806845
000010 ae 7a 22 3f d0 3f b7 3f 2f 21 b6 3f 84 07 70 40
       0.63468444 1.4316349 1.4228877 3.7504587

inputEmbed.othJetConv.conv.module.weight f4 [4, 8, 1]
000000 8f 28 ca bf 00 b8 95 3f d6 fb 2e 3e 95 66 15 3f
       -1.5793628 1.1696777 0.17088255 0.5835965
000010 66 cf 9b 3f 9b 6f b0 bf 9f a5 8a 3e a4 7d f1 be
       1.2172668 -1.3784059 0.27079484 -0.4716617
000020 f6 2f 08 3f a6 ba 3c 3e 8c a8 95 3e 5e 8c 84 3e
       0.5319818 0.18430576 0.29230154 0.25888342
000030 bd a2 68 3e b8 81 60 be 1d 3d a2 bf 46 6f 8c be
       0.2271833 -0.21924484 -1.26749 -0.27428645
000040 2b e1 86 bf c3 96 1e be a1 a0 ce bd 72 f2 81 bf
       -1.0537466 -0.15487199 -0.10089231 -1.0152113
000050 7e 59 33 3f 38 b9 91 3e f3 4a 4b bf 23 f6 a6 3e
       0.7005843 0.28461623 -0.7941124 0.32609662
000060 5d 1c 3d be 5f fa 08 bf 29 8d 87 bf d7 3a 06 3e
       -0.18467851 -0.53507036 -1.0589954 0.13108383
000070 1f bb 92 3f df 50 5c 3f 72 8a 0b 3f 8e 62 4f be
       1.1463355 0.860609 0.54508126 -0.2025244

inputEmbed.MdPhi_embed.m f4 [1, 1, 1, 3]
000000 5a 0d a8 40 44 83 e5 3f 6a 51 d7 3e
       5.25163 1.7930684 0.42054302

inputEmbed.MdPhi_embed.s f4 [1, 1, 1, 3]
000000 e8 a2 2f 3f 9d fd 6a 3f 32 bf fc 3e
       0.6860795 0.91793233 0.4936462

inputEmbed.MdPhi_embed.conv.bias f4 [1, 8, 1]
000000 66 b9 7e 3e 8e 57 c7 bf b8 6b 67 3f d3 6a c6 3f
       0.24875411 -1.5573595 0.9039874 1.550135
000010 ca 5b 05 bf e1 57 13 40 31 51 aa be ff 01 15 3f
       -0.52093184 2.3022387 -0.3326507 0.5820617

inputEmbed.MdPhi_embed.conv.module.weight f4 [4, 3, 1]
000000 28 49 7e c0 38 06 e8 bb a4 1d 15 bf cd 35 39 c0
       -3.973215 -0.0070808195 -0.58248353 -2.8939087
000010 70 89 cf bd 88 78 cf 3f 28 e9 2f bf 5d bc bb 3f
       -0.10133636 1.6208658 -0.68715143 1.4666859
000020 ff 1a c7 3f 7d 27 f7 39 42 2e eb bf 53 91 8e 3f
       1.5555114 0.00047140932 -1.8373492 1.11381

inputEmbed.MdPhi_conv.m f4 [1, 1, 1, 8]
000000 79 b1 b6 3f ce 70 35 3e c4 8b 92 3f 89 bb c9 3f
       1.427291 0.17718813 1.1448903 1.5760356
000010 21 df 84 3f d7 5c 14 40 21 06 d2 3e 22 45 7c 3f
       1.0380594 2.3181665 0.410203 0.9854299

inputEmbed.MdPhi_conv.s f4 [1, 1, 1, 8]
000000 97 32 10 40 47 fd 5e 3f 36 b4 bc 3f 20 6f e0 3f
       2.2530878 0.8710522 1.4742496 1.7533913
000010 dc 9c e2 3f 7c 40 0a 40 b3 1f 6b 3f e0 ce ab 3f
       1.770412 2.1601858 0.91845244 1.3422508

inputEmbed.MdPhi_conv.conv.bias f4 [1, 8, 1]
000000 41 3b 6a 40 a8 5a 2f bf 1e ea 8f 40 ee e2 db 3f
       3.6598666 -0.68497705 4.4973288 1.7178628
000010 43 97 8d 3f 47 df 09 bf 30 cf 59 3f 81 f6 fc 3f
       1.1061786 -0.5385632 0.8508177 1.9762727

inputEmbed.MdPhi_conv.conv.module.weight f4 [4, 8, 1]
000000 45 14 d2 be ae 7f f3 bf 6c 51 5d bf 1b e0 4b bf
       -0.4103109 -1.902334 -0.86452365 -0.7963883
000010 93 0d 6e 3e 29 0a fa 3e 89 27 02 3f 6c 01 db 3e
       0.23247366 0.48835877 0.50841576 0.42774522
000020 d0 c8 12 be 30 38 57 3f 23 06 3b 3f 53 9e 2d 3f
       -0.14334416 0.8407011 0.7305624 0.6781971
000030 c1 8b e6 3f 51 c8 2f 40 9a 83 21 be f9 87 b1 be
       1.80114 2.7466013 -0.15772858 -0.3467405
000040 2c df 7f 3e 02 08 3e be 14 00 94 3f ad e5 41 bf
       0.24987477 -0.18557742 1.1562524 -0.7574108
000050 15 41 2f be dc fe 55 be b9 42 bd 3f dc c2 d4 bf
       -0.1711467 -0.20898002 1.4785987 -1.6621966
000060 65 f9 b6 bf e4 4c dc be e6 b4 88 3e 52 f4 b2 bf
       -1.4294859 -0.43027413 0.26700515 -1.3980811
000070 0d 44 4d be 86 59 1a 3f 0f 56 65 be 87 c9 a6 3e
       -0.2004549 0.6029285 -0.2239611 0.32575628

inputEmbed.dijetEmbed.m f4 [1, 1, 1, 4]
000000 65 7f 91 40 ac c3 5c 3f c9 55 75 3f 60 5f a1 40
       4.546801 0.8623607 0.9583402 5.0428925

inputEmbed.dijetEmbed.s f4 [1, 1, 1, 4]
000000 f2 9b 38 3f dc a1 a2 3f cb 4d 97 3f 08 9c 05 3f
       0.72112954 1.2705646 1.1820616 0.5219121

inputEmbed.dijetEmbed.conv.bias f4 [1, 8, 1]
000000 41 ec 3c 3f f1 60 93 3f ff c8 76 3f c5 8e 94 3f
       0.73797995 1.1513959 0.96400446 1.160607
000010 d0 1c dd 3f 69 77 06 be f5 b0 a7 3f 2c 75 12 bf
       1.7274418 -0.13131489 1.3100878 -0.5721004

inputEmbed.dijetEmbed.conv.module.weight f4 [4, 4, 1]
000000 8f 61 d6 3e 35 d3 04 bf 42 5b af bc 5c fd fa bf
       0.41871306 -0.51884776 -0.02140582 -1.9608569
000010 95 03 fa 3e 98 11 e6 3e 1f a7 58 bd 06 56 19 c0
       0.48830858 0.44935298 -0.052893754 -2.3958755
000020 fe 70 fa 3d 61 d1 45 be 42 fe 7e bd 63 8b 32 40
       0.12228583 -0.19318153 -0.062254198 2.7897575
000030 ac 31 82 c0 de ea 93 be 03 45 7c bd 6a c0 f8 3e
       -4.0685635 -0.28890127 -0.061589252 0.485843

inputEmbed.quadjetEmbed.m f4 [1, 1, 1, 3]
000000 81 a9 8a 40 1b 6d b7 3f 03 48 c3 40
       4.3331914 1.4330171 6.1025405

inputEmbed.quadjetEmbed.s f4 [1, 1, 1, 3]
000000 10 ea 4b 3f 6e d4 e0 3f 92 15 a9 3e
       0.79654026 1.7564828 0.3302427

inputEmbed.quadjetEmbed.conv.bias f4 [1, 8, 1]
000000 10 54 34 3f 80 f8 29 bf f8 8e 97 3f f7 b0 80 bf
       0.7044077 -0.66394806 1.1840506 -1.0054005
000010 80 d8 d4 be af 9d 67 3f 89 67 a1 be 51 d3 8d be
       -0.41571426 0.9047498 -0.31524304 -0.27700284

inputEmbed.quadjetEmbed.conv.module.weight f4 [4, 3, 1]
000000 4d ab de 3e 8b 7f e1 3c 81 40 25 c0 47 73 9f 3f
       0.43490067 0.027526638 -2.582062 1.2457055
000010 7b 29 29 3e 92 12 3d 3f 5b 80 93 3f 90 2f be bc
       0.1651973 0.7385646 1.1523546 -0.023216039
000020 69 d7 1b be 1b 1d 51 3f af ea f4 3f ad 62 63 be
       -0.15218891 0.81685036 1.913412 -0.2220561

inputEmbed.dijetConv.m f4 [1, 1, 1, 8]
000000 cf 17 9b 3f 34 91 c9 3f 7e 2c ba 3f 8d 1c 00 40
       1.2116641 1.5747437 1.4544828 2.0017426
000010 fe e9 e4 3f 8e 32 43 3f 9a 8f e4 3f 69 8d 9b 3f
       1.7883909 0.76249015 1.7856324 1.215253

inputEmbed.dijetConv.s f4 [1, 1, 1, 8]
000000 19 27 cd 3f 3d fa ef 3f 3b e6 03 40 c0 b2 46 40
       1.6027557 1.8748242 2.0609272 3.10466
000010 f2 f2 f4 3f aa 1d c1 3f 55 d8 00 40 fb 7a f1 3f
       1.9136641 1.5087178 2.0132039 1.8865656

inputEmbed.dijetConv.conv.bias f4 [1, 8, 1]
000000 d2 19 97 be 3c 26 71 3f 15 2a db 3e 42 48 46 3e
       -0.29511887 0.94198966 0.42805544 0.19363502
000010 a6 d4 97 bf 17 11 bb 3e 1b 8b 8e 3f eb 4e 96 3f
       -1.186177 0.36536476 1.1136202 1.1742834

inputEmbed.dijetConv.conv.module.weight f4 [4, 8, 1]
000000 80 bb 86 3f 9a 93 96 3f 3a a3 b8 be 6c 4e 79 3d
       1.052597 1.1763794 -0.36062032 0.060865805
000010 74 58 12 bf 04 77 62 be 39 39 68 3f af 3d 20 3f
       -0.5716622 -0.22115713 0.90712315 0.6259412
000020 28 82 fd be ae 81 57 3d 73 89 82 bf 02 27 6d 3e
       -0.49513364 0.052613907 -1.0198196 0.23159412
000030 e3 b3 56 be 50 54 cc 3e 87 5d e0 bc 63 84 ab bf
       -0.20967059 0.39908075 -0.027388347 -1.3399776
000040 78 8e ae 3e f3 c5 b3 3e 43 fd 82 3f c2 19 2e bf
       0.3409307 0.3511196 1.0233539 -0.68008053
000050 dd f1 cb 3d 1c 39 fb bd cc 34 b9 3e e0 f8 22 be
       0.09958241 -0.12266752 0.36173093 -0.15915251
000060 27 a5 6c 3f fa 13 95 3f 77 de 11 c0 9c 8a 40 3f
       0.924395 1.1646721 -2.2792032 0.752115
000070 d6 d5 c9 bf 7d e6 cf bf 66 07 74 3f f4 b6 15 3f
       -1.5768383 -1.6242214 0.9532379 0.5848229

inputEmbed.quadjetConv.m f4 [1, 1, 1, 8]
000000 07 61 a6 3f d9 53 8e 3d 4d f3 9b 3f e7 6f 54 3d
       1.299836 0.069495864 1.2183625 0.05186453
000010 e8 72 21 3f 5a 26 53 3f 55 f2 a4 3e bb 2c e9 3e
       0.6306596 0.82480395 0.32216135 0.4554194

inputEmbed.quadjetConv.s f4 [1, 1, 1, 8]
000000 51 9d d0 3f 85 3f 12 3f b8 b1 8e 3f ea 96 ae 3e
       1.6298009 0.57128173 1.1147985 0.34099513
000010 ba 8c c8 3f 3c 81 88 3f ec 3f 65 3f 35 62 c1 3f
       1.5667946 1.0664439 0.8955066 1.5108095

inputEmbed.quadjetConv.conv.bias f4 [1, 8, 1]
000000 e8 97 e4 3c 5d 4b 22 3f fb 50 56 3f 59 8f e0 be
       0.027904466 0.63396245 0.83717316 -0.43859366
000010 e0 e4 15 bf ed 60 0a bf fc ca 15 40 98 1e 15 3f
       -0.5855236 -0.54054147 2.3405142 0.5824981

inputEmbed.quadjetConv.conv.module.weight f4 [4, 8, 1]
000000 88 49 ca 3e c2 f5 75 3c 89 c5 93 3e a2 e7 b9 bf
       0.39509225 0.0150122065 0.28861645 -1.4523814
000010 cc 94 61 bf c4 b5 0f 3f 08 d3 9a bd 41 37 cf 3d
       -0.8811767 0.5613673 -0.07559782 0.10117961
000020 e1 4e 07 3f a0 22 46 be c7 aa 66 be 08 b2 1b bf
       0.52854735 -0.19349146 -0.22526084 -0.6081853
000030 52 35 7e bf 3f 38 c4 3e 03 e7 b8 3d 91 34 6b 3d
       -0.9930011 0.38324162 0.09028437 0.057423178
000040 2d 16 79 bf b8 7e b8 bd 5b 61 b3 3d b3 3e 9e bd
       -0.9729946 -0.09008545 0.087588035 -0.07726803
000050 78 1b 89 bd 6a 11 f3 be 8b fa 5f bd 5e 1a 03 bd
       -0.066946924 -0.47474223 -0.054682296 -0.032007568
000060 c8 d9 49 3e 8d cc 74 3e 81 9f 57 bd 1a d1 72 3f
       0.19711983 0.23906155 -0.05264235 0.94850314
000070 f8 b3 14 be cb b9 4b bd 6e aa 84 be 58 0c ce bd
       -0.14521778 -0.049737733 -0.25911278 -0.10060948

dijetResNetBlock.reinforce.0.conv.m f4 [1, 1, 3, 8]
000000 22 2f 61 3f 10 59 e7 3f 8f ba 97 3f a8 34 01 40
       0.87962544 1.8074055 1.1853808 2.018839
000010 83 09 82 3f bb 11 29 3e 1c 07 8a 3e 62 71 47 3f
       1.0159153 0.1651067 0.2695855 0.77907383
000020 4c d4 7e 3f 21 15 53 3f e1 6a 5a 3f 3f a7 03 40
       0.9954269 0.82454115 0.85319334 2.057083
000030 17 cb 8e 3f 40 53 2d 3f 3c bf 17 3f c4 38 7f 3e
       1.1155728 0.67705154 0.59276175 0.24923998
000040 a7 5a c5 3f 04 8d 82 3f 5c 42 07 3f f1 e7 4e 40
       1.541829 1.0199285 0.5283563 3.2329066
000050 1e 31 88 3f 54 26 16 3f 5d 64 86 3f 79 db 6b 40
       1.0639989 0.58652234 1.0499378 3.6852705

dijetResNetBlock.reinforce.0.conv.s f4 [1, 1, 3, 8]
000000 55 cf a8 3f b0 74 c7 3f 2d 3c ca 3f 99 fa d5 3f
       1.3188273 1.5582485 1.5799614 1.6717101
000010 0c 8a c9 3f a4 14 59 3f 70 b5 a8 3f cb 64 d8 3f
       1.5745254 0.8479712 1.318037 1.690576
000020 55 06 bf 3f 86 2d 9c 3f 58 48 a8 3f 94 65 9b 3f
       1.4923807 1.2201393 1.3147078 1.2140374
000030 13 d8 d8 3f 88 11 a5 3f 44 e4 d5 3f 00 07 70 3f
       1.6940941 1.2895975 1.6710286 0.9376068
000040 b7 06 29 40 8a 2e 7a 3f e3 fe 52 3f 23 bc 78 40
       2.6410348 0.9772726 0.82420176 3.886483
000050 e2 81 c8 3f 16 23 8e 3f bf f8 84 3f c7 30 ad 40
       1.5664637 1.1104457 1.0388411 5.4122043

dijetResNetBlock.reinforce.0.conv.conv.bias f4 [1, 8, 1]
000000 50 88 e6 bf f1 87 a7 bf 6b 2f 8d 3f b0 57 88 bf
       -1.8010349 -1.3088361 1.1030096 -1.065176
000010 22 1d 0d c0 ab 59 c8 3f 8a 5e 1d bf 84 26 f1 bf
       -2.2049031 1.5652364 -0.6147238 -1.8839879

dijetResNetBlock.reinforce.0.conv.conv.module.weight f4 [4, 8, 3]
000000 9b e1 16 3e e6 d2 b1 3d c1 bc 02 3f 58 ef 3d 3e
       0.14734499 0.08682804 0.51069266 0.18548334
000010 50 13 72 3e 88 bb 97 3f 78 b3 06 3f f9 a0 bf 3e
       0.2364018 1.1854105 0.526176 0.374275
000020 57 2c b0 be 94 65 0c 3f 02 47 c3 3e 93 56 d3 3f
       -0.3440883 0.54842496 0.38140112 1.6510795
000030 e1 77 e0 3d 29 03 f8 be 6a c9 10 40 94 84 2c bf
       0.10960365 -0.4843991 2.2622933 -0.673898
000040 25 c0 44 bf ca 01 a5 bf 7a db 67 be d7 da 0f bf
       -0.7685569 -1.2891171 -0.22642317 -0.561933
000050 14 30 82 bb 09 1f 9d 3f 04 34 66 3f 72 a2 de 3f
       -0.0039730165 1.2275096 0.8992312 1.7393324
000060 a0 db 55 bf c8 38 b0 be 19 d8 c2 3e b5 06 82 be
       -0.83538246 -0.3441832 0.38055494 -0.25395742
000070 2c b8 6c 3e d1 3f 56 bf 96 e1 ba bf 36 12 26 bf
       0.23117131 -0.83691126 -1.4600093 -0.6487154
000080 d6 5c 21 be 30 8b e0 3e 9d c8 99 3f fe 7f db 3e
       -0.1575807 0.43856192 1.2014347 0.42871088
000090 99 b4 fd bd b8 d7 e5 3d 8b 88 d9 3f 88 a6 5c be
       -0.12387962 0.11222786 1.6994795 -0.21547902
0000a0 fc d0 17 bf 20 12 07 bf e2 f8 80 3f 0f e5 75 3f
       -0.5930326 -0.5276203 1.0075953 0.9605264
0000b0 cd 8d 24 be ec f9 df 3e 31 76 1c 3f 62 bd 22 3f
       -0.16069718 0.43745363 0.61117846 0.63570225
0000c0 5c e5 8d bd 62 66 67 be f3 78 ac be de 40 15 3f
       -0.069285125 -0.2259765 -0.33686027 0.58302104
0000d0 cd 1d bd 3f ff ce 35 be 0a 56 1a bf c2 a8 d4 be
       1.477472 -0.17754744 -0.60287535 -0.41535002
0000e0 c1 82 40 3f ca 16 1f 40 81 07 3d 3f 7d d8 2d be
       0.75199515 2.485766 0.73839575 -0.16977115
0000f0 1d d5 fd be ee 2d 77 be 7f bc bb be 92 e3 e8 bf
       -0.49576655 -0.24138615 -0.3666725 -1.8194449
000100 aa d6 a8 be 8a ab b3 be be b2 dc bd f3 f4 fd bc
       -0.32976276 -0.3509181 -0.1077628 -0.03100059
000110 76 09 b9 3e 34 24 43 bf ae 07 c3 be 8b 6f 51 bf
       0.3614003 -0.76227117 -0.38091797 -0.81810826
000120 14 04 54 3d dc 70 d7 3c 7f 22 ab 3f 3c 86 1e be
       0.0517617 0.026298933 1.3369902 -0.15480894
000130 3b 32 9e 3e 27 14 23 3f 0f ac 95 be 53 ac f8 3d
       0.30897698 0.63702625 -0.29232833 0.12142243
000140 2a 98 03 bf 4a 57 a8 bc 2a 83 a6 be 01 bc 1b 40
       -0.5140406 -0.020549435 -0.32521945 2.4333498
000150 a3 33 9f 3e 36 81 51 3d e0 ec 86 3e 0e bd e2 be
       0.31094083 0.051148616 0.26352596 -0.44284862
000160 66 99 86 3e 22 d3 93 bf 1d 44 31 3e 5a 3a 53 bd
       0.2628891 -1.1548808 0.1731114 -0.05156932
000170 fd 7d b1 bc 09 9d 98 3f 9d ce bb be 9d c4 23 3e
       -0.021666521 1.1922923 -0.3668107 0.15992971

dijetResNetBlock.reinforce.1.conv.m f4 [1, 1, 3, 8]
000000 eb c7 c2 3f c0 69 36 40 39 f7 cd 3e 86 45 68 40
       1.521726 2.8502045 0.40227678 3.6292434
000010 8b e0 ca 3f 40 05 a4 3d 74 09 6f bd e0 3c 01 40
       1.5849775 0.08008814 -0.058358625 2.0193405
000020 1d c7 c8 3f 45 aa 8a 3f c3 df df 3e a5 e7 43 40
       1.5685765 1.0833212 0.43725404 3.0610135
000030 27 bc ca 3f 60 15 ea 3e 03 05 83 3c d1 54 fc 3f
       1.583867 0.45719433 0.0159936 1.9713384
000040 73 22 31 3f 51 80 ca 3f dd c3 40 40 d1 e2 70 40
       0.6919319 1.5820409 3.0119545 3.7638438
000050 1a 93 17 3e 3f 96 3b 40 e5 25 18 40 fe 8f 7e 40
       0.14802209 2.9310453 2.377313 3.9775386

dijetResNetBlock.reinforce.1.conv.s f4 [1, 1, 3, 8]
000000 fa ec d9 3f b0 90 29 40 42 34 55 3f 2e ec 27 40
       1.7025445 2.649456 0.83282864 2.6237903
000010 81 5b 27 40 f7 85 14 3f 94 7e 23 3f 78 6f 3f 40
       2.61496 0.58016914 0.6386502 2.9911785
000020 1d b8 c0 3f e7 82 d7 3f a4 0c 7e 3f 61 fe 0b 40
       1.5056187 1.6836823 0.9923804 2.187401
000030 d6 48 20 40 c8 2b 87 3f 40 cd 42 3f 19 45 0d 40
       2.5044456 1.0560236 0.76094437 2.2073424
000040 01 5a e5 3f 0e 5a 34 40 fa e9 62 40 1e 44 a6 40
       1.7918092 2.8179965 3.5455308 5.195815
000050 33 e9 4b 3f 8b fd 4a 40 f9 00 78 40 4d fb bf 40
       0.7965271 3.171725 3.8750594 5.9994264

dijetResNetBlock.reinforce.1.conv.conv.bias f4 [1, 8, 1]
000000 0e 9b 24 3f 66 a3 b4 3f 5d ce 47 3e 7a 44 c6 3f
       0.64299095 1.4112365 0.19512315 1.5489647
000010 f2 2f 0e 3d 3f 09 dc 3e f7 fd 9e 3f 58 47 04 40
       0.034713693 0.42975804 1.2421254 2.0668545

dijetResNetBlock.reinforce.1.conv.conv.module.weight f4 [4, 8, 3]
000000 d7 1a 75 3f 2c 94 88 3f 76 5b 2c 3f dd 0b 3f 3f
       0.9574408 1.0670218 0.6732706 0.74627477
000010 f5 42 c9 3e 86 7d 05 3f 4b 09 a6 be e7 78 68 bf
       0.39308897 0.5214466 -0.32428965 -0.9080948
000020 af 7b c1 3f 37 6c 01 40 21 78 93 3f 30 23 ce 3c
       1.511587 2.02223 1.1521035 0.025163263
000030 91 68 e2 be d6 9b fb be 10 f5 09 3e b6 d2 07 bf
       -0.44220403 -0.4914233 0.1347239 -0.53055894
000040 0c 4d 86 bf 22 6b 0f bd 70 1b 02 3e e8 b2 7c bf
       -1.0492263 -0.03501428 0.12705779 -0.9871049
000050 8a 47 fa be 2f e8 52 bd 58 9f 2c be 87 7f 2f 3e
       -0.48882705 -0.05149096 -0.1685766 0.17138492
000060 91 17 d7 bc d6 37 3e be 32 cc 1a 3f d6 9e 6f 3f
       -0.026256355 -0.18575987 0.6046783 0.9360174
000070 1b ce 4f 3d 31 94 65 bf 02 9a 2a 3f 44 d8 10 3f
       0.050733667 -0.8967925 0.6664125 0.56579995
000080 5c 0a 4a 3e 19 56 c8 be 00 39 04 be 14 19 d1 3e
       0.19730514 -0.39128187 -0.12912369 0.40839446
000090 b6 f3 ae be aa 06 03 bf e1 5a ed 3e 77 9e 5e bf
       -0.34170312 -0.51182044 0.46358398 -0.8696055
0000a0 0e 2f 78 be ca 66 76 3f d5 47 25 bf 21 2d 60 bf
       -0.242367 0.96250594 -0.6456273 -0.8756886
0000b0 09 84 31 3f c0 17 4e be be 2d 83 3d ca 39 d7 3e
       0.69342095 -0.20126247 0.06405209 0.42036277
0000c0 e9 c4 6e 3e 37 a3 6a 3d bf ac ed be f1 a6 e5 bd
       0.23317303 0.05728456 -0.46420857 -0.11213482
0000d0 61 42 de 3d bb 93 5b 3b a8 0e 7e be 67 93 97 be
       0.108525045 0.0033504802 -0.24810278 -0.29604647
0000e0 9b 86 47 be 62 e6 97 3e 35 e6 ca 3e 3a 86 b0 bf
       -0.19484942 0.29667956 0.3962876 -1.3790963
0000f0 13 65 d4 3c 7e b2 10 3f 3e 4a 41 3c 80 a1 46 bf
       0.025927102 0.5652236 0.011797486 -0.7759018
000100 47 8d 80 3e 15 44 96 3e 3f df ed bd 0e 44 81 3e
       0.25107786 0.29348817 -0.116148464 0.25247234
000110 1a 83 1d be 73 56 1c 3f 69 2a cf 3d 16 94 82 bf
       -0.15382043 0.6106941 0.10115511 -1.0201442
000120 8b a0 68 be d5 e8 d5 3d d9 b8 bc 3f bf f2 5c 3e
       -0.22717492 0.104448 1.4743911 0.21576975
000130 33 44 2f 3f 76 70 31 3f 8e 99 a5 be 70 6a fb be
       0.6846344 0.69312227 -0.32343715 -0.49104643
000140 6c 27 f6 3e ea 48 60 3e 64 f8 a4 3e ef cb 9b 3f
       0.48076952 0.21902815 0.32220757 1.217161
000150 90 cf ae 3d 52 75 9c 3e 44 81 31 3f 64 3a 34 3f
       0.08535683 0.30558258 0.6933787 0.704016
000160 c4 9b 56 be 2b 91 48 3e ab 04 34 bf 6d 3c 5a bf
       -0.20957857 0.19586627 -0.7031962 -0.8524845
000170 32 af 84 3e fe 24 ec be 62 40 63 be 42 a4 db 3e
       0.25914913 -0.46121973 -0.22192529 0.42898756

dijetResNetBlock.conv.0.m f4 [1, 1, 1, 8]
000000 b7 01 70 3f d0 71 a8 3f 02 78 82 3f f3 6d 02 40
       0.93752617 1.3159733 1.0192873 2.0379608
000010 4e 6a 88 3f ac 97 d7 3e cc c2 dc 3e ca 9f 03 3f
       1.0657442 0.42107904 0.43117368 0.51415694

dijetResNetBlock.conv.0.s f4 [1, 1, 1, 8]
000000 5f 6b b4 3f 66 dc bd 3f 0b 41 bb 3f 0e 05 bb 3f
       1.4095267 1.4832885 1.4629225 1.4610918
000010 04 73 d1 3f ac 7f 8f 3f 7e c6 c1 3f 26 3b b2 3f
       1.6363225 1.1210837 1.51387 1.3924301

dijetResNetBlock.conv.0.conv.bias f4 [1, 8, 1]
000000 01 df 6a 3e 91 2c 08 3f af e7 50 bf 04 06 94 3f
       0.22936632 0.53193 -0.8160352 1.1564336
000010 40 5e 8e be e2 c4 ab bf e8 8f ef bf a3 cd d8 3f
       -0.27806282 -1.3419459 -1.8715792 1.6937755

dijetResNetBlock.conv.0.conv.module.weight f4 [4, 8, 1]
000000 5e 3d e0 bf d1 9e 45 3d 80 05 c8 be 47 9d ba 3e
       -1.7518728 0.048247162 -0.39066696 0.36448118
000010 ed 9a f2 bf 8c 18 81 3e 6f b4 af be 08 e2 60 bf
       -1.895353 0.2521404 -0.34317347 -0.87844896
000020 ec c1 dc 3c c0 43 00 3f 5b 39 ad 3d bb 7d 27 bf
       0.026947938 0.5010338 0.08458205 -0.65426224
000030 f8 bd 7e bf 68 f1 19 3e 0d 42 a2 bd cc 12 9c 3f
       -0.9950862 0.15033495 -0.079227544 1.2193236
000040 50 f1 e1 3e 18 45 6b 3e f7 34 de bc 83 79 61 be
       0.4412942 0.22975576 -0.027124865 -0.2201901
000050 34 9e c6 3d 3d de f8 3d ce 5b df 3e f4 63 64 bf
       0.096981436 0.121517636 0.4362473 -0.89215016
000060 bc 46 6d bf 28 61 1d 3f 94 98 20 bf ed 85 5c be
       -0.9268606 0.61476374 -0.62732816 -0.21535464
000070 0e 1b 90 3e 08 d6 11 bf c2 94 18 bf cf 6d 82 be
       0.2814564 -0.5696721 -0.59601986 -0.25474402

attention_oo.q_GBN.gamma f4 [8]
000000 42 22 24 bf a2 b7 58 3f b2 57 9c 3f 50 0e 2b bf
       -0.64114773 0.846552 1.2214262 -0.66818714
000010 02 ee 59 be 2b 58 06 3f d6 00 a6 3e 30 0e bf bd
       -0.21282199 0.52478284 0.32422513 -0.09328878

attention_oo.q_GBN.bias f4 [8]
000000 bf 26 91 bf 95 f2 a9 40 5a 91 42 c0 55 30 3a c0
       -1.1339949 5.310862 -3.0401216 -2.9092
000010 c0 3f 0d 3e 61 0d 2d c0 8b d1 ba 3f 9f 83 a9 bf
       0.1379385 -2.7039416 1.4595197 -1.3243293

attention_oo.q_GBN.m f4 [1, 1, 1, 8]
000000 70 dd 80 3f 14 f7 15 40 65 e7 53 3f 64 69 c2 3f
       1.0067577 2.3432055 0.82774955 1.5188413
000010 0d 82 54 3f c5 b5 c1 3f 2c 11 d0 3f 49 e9 68 40
       0.8301094 1.5133597 1.625524 3.6392386

attention_oo.q_GBN.s f4 [1, 1, 1, 8]
000000 90 1c a8 3f 5e 09 de 3f c1 01 98 3f 66 d3 ef 3f
       1.3133717 1.7346609 1.1875535 1.8736389
000010 2a 62 90 3f d3 03 f1 3f 30 1a 1c 40 54 d4 23 40
       1.1279957 1.8829292 2.4390984 2.5598345

attention_oo.v_GBN.gamma f4 [8]
000000 ee 30 a7 3f 85 fe 5d 40 a7 87 78 3e f5 33 88 3e
       1.3061807 3.4686596 0.24270497 0.2660214
000010 8d 7b 46 3f c7 df 82 3f 40 0f 01 be 76 23 8a bf
       0.77532274 1.0224541 -0.12603474 -1.0792072

attention_oo.v_GBN.bias f4 [8]
000000 c9 ea bc 3e 95 0f f7 3d 3e 00 f2 be d6 8a bd be
       0.36897877 0.12063519 -0.4726581 -0.37019986
000010 05 df 76 3c 95 34 01 c0 a0 62 24 bd c9 b6 5a 3f
       0.01506782 -2.0188344 -0.04013312 0.8543516

attention_oo.v_GBN.m f4 [1, 1, 1, 8]
000000 70 dd 80 3f 14 f7 15 40 65 e7 53 3f 64 69 c2 3f
       1.0067577 2.3432055 0.82774955 1.5188413
000010 0d 82 54 3f c5 b5 c1 3f 2c 11 d0 3f 49 e9 68 40
       0.8301094 1.5133597 1.625524 3.6392386

attention_oo.v_GBN.s f4 [1, 1, 1, 8]
000000 90 1c a8 3f 5e 09 de 3f c1 01 98 3f 66 d3 ef 3f
       1.3133717 1.7346609 1.1875535 1.8736389
000010 2a 62 90 3f d3 03 f1 3f 30 1a 1c 40 54 d4 23 40
       1.1279957 1.8829292 2.4390984 2.5598345

attention_oo.qv_GBN.gamma f4 [8]
000000 3d 8f 98 3f ca cb b1 3f 21 00 14 40 2b 7a 1b 40
       1.1918713 1.3890316 2.3125079 2.4293315
000010 0c df 07 40 4f e8 51 40 56 3f f4 3e 61 37 7d 3f
       2.1229887 3.279804 0.4770457 0.98912627

attention_oo.qv_GBN.bias f4 [8]
000000 10 75 9a 3e bf 42 84 3f 30 44 b4 be 1d 11 a0 be
       0.30167437 1.0332869 -0.35208273 -0.31263056
000010 4f d7 4e 3f e1 2e f7 3f e2 46 85 bf 35 ec e2 3e
       0.80797285 1.9311181 -1.0412257 0.44320837

attention_oo.qv_GBN.m f4 [1, 1, 1, 8]
000000 a6 33 91 40 f0 21 19 3f 04 47 85 40 46 c8 11 40
       4.5375547 0.5981741 4.164919 2.2778487
000010 4c 1e 96 3f 76 f3 dd 3f 2c f8 ca 3f 3d c3 24 40
       1.1727996 1.7339923 1.5856986 2.5744164

attention_oo.qv_GBN.s f4 [1, 1, 1, 8]
000000 9f 16 14 40 e3 3e 0a 40 f0 09 24 40 87 21 0f 40
       2.3138807 2.1600883 2.5631065 2.2364213
000010 82 aa 36 40 ee 25 c4 3f 90 4b ea 3f 51 03 52 40
       2.854157 1.5324075 1.830431 3.2814524

attention_oo.score_GBN.gamma f4 [2]
000000 d3 a2 f8 3e 5f 8a ce 3f
       0.48561725 1.6135978

attention_oo.score_GBN.bias f4 [2]
000000 02 13 98 3f c3 67 8a bf
       1.1880801 -1.0812916

attention_oo.score_GBN.m f4 [1, 1, 1, 2]
000000 24 27 15 40 ff a1 c1 40
       2.330514 6.051025

attention_oo.score_GBN.s f4 [1, 1, 1, 2]
000000 49 74 9b 41 f0 b0 91 40
       19.43178 4.552849

attention_oo.conv.m f4 [1, 1, 1, 8]
000000 a9 95 0f 3f 1c 28 20 40 aa 4e 5c be 86 25 9c 3d
       0.5608774 2.502448 -0.21514383 0.076243445
000010 81 35 65 3f 13 ad 45 3f 53 94 67 be 4d 63 70 3f
       0.89534765 0.77217215 -0.22615175 0.9390152

attention_oo.conv.s f4 [1, 1, 1, 8]
000000 1a 64 60 3f cc 85 21 40 86 89 a2 3d 4e 1d de 3e
       0.8765274 2.5237913 0.07936387 0.43381733
000010 d9 95 a1 3f ba 39 52 3f da cd 87 3d 61 20 44 3f
       1.2623855 0.82119334 0.0663106 0.76611906

attention_oo.conv.conv.bias f4 [1, 8, 1]
000000 85 35 18 3f 8c 54 d2 3f 04 8e 4c 3f ed 35 3e 40
       0.59456664 1.6432052 0.799042 2.9720414
000010 99 ae d1 3e 6c f2 da bf ab 24 af 3f 3a b4 c9 3e
       0.4095352 -1.7105231 1.3683065 0.39395314

attention_oo.conv.conv.module.weight f4 [4, 8, 1]
000000 e0 e6 40 bf 60 db c6 be ac e7 59 3d 50 c3 0b bf
       -0.7535229 -0.38839245 0.053199455 -0.545949
000010 b6 9e 9b bf 0b c6 6c 3f 45 54 00 3f 0c 6d f3 3d
       -1.215781 0.9248969 0.50128585 0.118860334
000020 dd 6d a5 be ac 68 97 bf 9e aa 63 bf bd 95 d2 3f
       -0.32310382 -1.1828818 -0.88932216 1.6451946
000030 d9 cc 15 bf c7 e5 0b 3f 10 8f 66 bd e7 11 61 3f
       -0.585157 0.5464749 -0.05628878 0.8791794
000040 43 d2 e5 bd e7 d2 83 3f ca 70 ae 3e c1 12 7c 3f
       -0.11221745 1.0298737 0.34070426 0.98466116
000050 b1 bc 1a bf 02 d7 a0 be ca 32 92 be 7a a7 ad 3b
       -0.6044417 -0.31414038 -0.28554374 0.005299506
000060 eb 24 8b 3f 39 c2 e4 bd 4e 8c 33 bf 2a 5d 87 3e
       1.0870641 -0.111698575 -0.7013596 0.26438266
000070 6e 36 ab 3f 8a 20 b1 be 8f 6d 7d 3f 1a 1e 05 be
       1.3375986 -0.34595138 0.989953 -0.12999764

attention_do.q_GBN.gamma f4 [8]
000000 3e 76 90 3f 5d 6e 4f be bf e0 6e bf 60 c7 90 3e
       1.1286085 -0.20256944 -0.93311685 0.2827711
000010 c1 98 5c 3d 34 16 31 be 68 ab 3e 3f 29 ea 41 3f
       0.053856615 -0.17293626 0.74480295 0.75747925

attention_do.q_GBN.bias f4 [8]
000000 32 26 cc bf 49 bb 05 be e4 55 33 bf c5 ba 37 c0
       -1.5949156 -0.13059725 -0.70052934 -2.8707745
000010 54 cf 98 bf 3c 0e 12 c0 0d 08 e3 3f cc 84 a0 3e
       -1.1938272 -2.2821188 1.7736832 0.31351316

attention_do.q_GBN.m f4 [1, 1, 1, 8]
000000 81 eb 54 40 fc 16 35 40 30 f4 40 3f a7 e4 8c 40
       3.326874 2.8295279 0.753726 4.4029117
000010 48 c1 29 40 37 54 da 3f e8 26 16 40 0d f4 aa 40
       2.652422 1.705695 2.3461246 5.3422914

attention_do.q_GBN.s f4 [1, 1, 1, 8]
000000 80 ac 9c 40 48 d8 38 40 97 97 79 3f 85 f5 b9 40
       4.896057 2.8882008 0.9749693 5.8112206
000010 67 bb 83 40 96 c1 29 40 5e 04 b2 3f 02 ad bd 40
       4.1166263 2.6524405 1.3907583 5.927369

attention_do.v_GBN.gamma f4 [8]
000000 86 f7 a2 3d f6 25 b7 3f 24 a0 99 3f 50 fe f3 3f
       0.079573676 1.430846 1.2001996 1.9061985
000010 58 ab 87 3f f7 d2 f2 3e d1 63 9a 3f 69 fb 66 3f
       1.0599165 0.47426578 1.2061712 0.9022737

attention_do.v_GBN.bias f4 [8]
000000 09 36 a3 3f c3 9b 88 3f f5 07 19 40 91 b9 17 40
       1.2750865 1.0672535 2.3911107 2.370701
000010 8b 71 1e 3f 82 97 e7 3e 2e 40 33 40 8f 7c 5e 3f
       0.61892 0.4523278 2.8007922 0.8690881

attention_do.v_GBN.m f4 [1, 1, 1, 8]
000000 84 a9 d4 3f 6b a0 81 40 5c e3 7a 3f b6 20 7e 40
       1.6614232 4.0508323 0.9800317 3.9707465
000010 8d d3 92 3f ea 95 96 3f 9e 16 28 40 16 26 83 40
       1.147081 1.17645 2.6263804 4.098399

attention_do.v_GBN.s f4 [1, 1, 1, 8]
000000 54 d4 d2 3f f6 54 45 40 55 f3 b2 3f fc a1 2c 40
       1.6471047 3.0833106 1.3980509 2.6973867
000010 f2 b1 db 3f a8 14 0b 40 0d 2e 04 40 95 06 23 40
       1.716368 2.1731358 2.0653107 2.5472767

attention_do.qv_GBN.gamma f4 [8]
000000 be 40 93 3f 03 d9 8d 3e a4 49 27 40 51 21 0e 3f
       1.1504133 0.2770463 2.6138697 0.55519587
000010 91 b7 8c 3f fb 5f 68 40 01 dd 1f be 63 eb fc 3e
       1.099352 3.6308582 -0.1561165 0.49398336

attention_do.qv_GBN.bias f4 [8]
000000 65 f4 9c 3f 98 13 07 40 87 5a 3a 3f f9 59 2b 40
       1.2262083 2.110571 0.72794384 2.6773665
000010 02 6c eb 3e 3f e4 19 3f cc 11 9e 3f ea 0f 91 3f
       0.4598084 0.601139 1.2349181 1.1332982

attention_do.qv_GBN.m f4 [1, 1, 1, 8]
000000 b8 98 34 40 3c 97 fe 3f 25 bd 97 40 bb ba 0b 40
       2.8218212 1.9889903 4.741839 2.1832721
000010 eb db e2 3f 9f 50 54 3e 30 70 32 3f 7e 93 d1 3f
       1.7723364 0.2073388 0.69702435 1.6373136

attention_do.qv_GBN.s f4 [1, 1, 1, 8]
000000 4f 26 a8 3f e1 e8 4c 40 03 74 ad 3f 2c aa e6 3f
       1.3136691 3.2017138 1.3551029 1.8020682
000010 15 a6 d9 3f b6 cc 08 3f 6b 79 82 3f 5e 50 fb 3f
       1.7003809 0.53437364 1.0193304 1.9633901

attention_do.score_GBN.gamma f4 [2]
000000 e2 e7 a8 3e 6e 7b 92 3f
       0.32989413 1.1443918

attention_do.score_GBN.bias f4 [2]
000000 5f ff 88 3f 2b ea 3d 3f
       1.0702933 0.74185437

attention_do.score_GBN.m f4 [1, 1, 1, 2]
000000 aa e9 85 c0 7a b5 e8 40
       -4.1847734 7.272153

attention_do.score_GBN.s f4 [1, 1, 1, 2]
000000 b9 88 ee 40 14 8f c7 40
       7.45419 6.2362156

attention_do.conv.m f4 [1, 1, 1, 8]
000000 44 14 e8 3f bc 45 17 40 48 33 14 40 0f e0 65 40
       1.8131185 2.3636312 2.31563 3.5918005
000010 80 d5 5c 3f d1 ba 07 40 46 22 3c 40 1d 54 a2 3f
       0.86263275 2.1207774 2.939592 1.2681919

attention_do.conv.s f4 [1, 1, 1, 8]
000000 04 ed 15 3f 16 63 1c 3f 13 1a 7d 3f 92 55 34 3f
       0.5856478 0.61088693 0.9886791 0.7044307
000010 0d a9 6c 3f 84 89 36 40 42 38 a0 3f 6e 07 30 3f
       0.9244545 2.8521433 1.2517169 0.68761337

attention_do.conv.conv.bias f4 [1, 8, 1]
000000 e8 a8 24 3f f3 de 9e 3f a0 9d b6 3f c9 bd a9 3f
       0.6432023 1.2411789 1.4266853 1.3261043
000010 1d b9 d7 3b fa c6 89 3e 1c 16 cb 3f 70 ab 10 40
       0.0065833465 0.2690962 1.5866122 2.2604637

attention_do.conv.conv.module.weight f4 [4, 8, 1]
000000 23 92 c7 3e cb b0 7e bf 14 ad e6 3e a3 1b 83 bf
       0.3897868 -0.99488515 0.45053923 -1.0242809
000010 f7 25 39 bf 54 18 8a 3e 31 fd 30 bf c4 a8 08 bf
       -0.72323555 0.26971686 -0.6913634 -0.53382516
000020 da 5a 12 bf 7a 6b 33 bf 82 27 16 bf be a3 02 bf
       -0.5716988 -0.7008587 -0.58654034 -0.510311
000030 e3 29 1b 3f d0 6e b7 bf 67 72 8d 3f 64 6a fd bf
       0.6061079 -1.4330692 1.1050538 -1.9798093
000040 5b 38 f4 be d7 89 0e c0 93 12 93 3e 9f 58 1f c0
       -0.47699246 -2.227163 0.28725109 -2.489784
000050 ed 7d f7 be c3 a8 45 3d f9 1e 04 40 ed 79 32 3f
       -0.4833826 0.048256647 2.0643904 0.69717294
000060 3e b7 02 3f 94 0d 01 3f f7 c5 0a 3e 69 78 81 3f
       0.51060855 0.50411344 0.1355208 1.0114871
000070 14 04 5d bf 9e 04 7a bf a4 71 58 bf 3c 7d 1c be
       -0.8633435 -0.97663295 -0.845484 -0.15282148

quadjetResNetBlock.reinforce.0.sym.weight f4 [8, 1, 2]
000000 00 00 00 3f 00 00 00 3f 00 00 00 3f 00 00 00 3f
       0.5 0.5 0.5 0.5
000010 00 00 00 3f 00 00 00 3f 00 00 00 3f 00 00 00 3f
       0.5 0.5 0.5 0.5
000020 00 00 00 3f 00 00 00 3f 00 00 00 3f 00 00 00 3f
       0.5 0.5 0.5 0.5
000030 00 00 00 3f 00 00 00 3f 00 00 00 3f 00 00 00 3f
       0.5 0.5 0.5 0.5

quadjetResNetBlock.reinforce.0.antisym.weight f4 [8, 1, 2]
000000 00 00 00 3f 00 00 00 bf 00 00 00 3f 00 00 00 bf
       0.5 -0.5 0.5 -0.5
000010 00 00 00 3f 00 00 00 bf 00 00 00 3f 00 00 00 bf
       0.5 -0.5 0.5 -0.5
000020 00 00 00 3f 00 00 00 bf 00 00 00 3f 00 00 00 bf
       0.5 -0.5 0.5 -0.5
000030 00 00 00 3f 00 00 00 bf 00 00 00 3f 00 00 00 bf
       0.5 -0.5 0.5 -0.5

quadjetResNetBlock.reinforce.0.conv.m f4 [1, 1, 3, 8]
000000 02 4a 66 40 bd 8e 7b 40 9d 47 37 40 65 60 96 40
       3.598267 3.930587 2.863746 4.699267
000010 b5 4e 2a 40 b6 0b fb 3f 2a 1c 8b 40 65 e8 d7 40
       2.661054 1.9612949 4.347188 6.7471185
000020 74 a9 fb 3f 33 d8 bc 3f 7f 95 4f 3f 6a e4 05 40
       1.9661088 1.4753479 0.8108749 2.0920663
000030 f4 80 c1 3f 4e 4b 8b 3f cc d8 7c 3f 25 d8 09 40
       1.5117478 1.0882356 0.98768306 2.1538174
000040 ed fa 19 3f 43 1e 51 3f 10 19 52 3f b0 f5 c1 3d
       0.6014851 0.816868 0.8206949 0.09470689
000050 74 65 e1 3e a9 53 47 3e 83 71 0e 40 fd 90 22 3f
       0.44022715 0.19465508 2.2256782 0.63502485

quadjetResNetBlock.reinforce.0.conv.s f4 [1, 1, 3, 8]
000000 b2 fa 7f 40 a7 c4 31 40 b2 4c 39 40 5b c9 a6 40
       3.9996762 2.7776277 2.895306 5.2120795
000010 19 f1 5f 40 a6 02 16 40 f2 e6 5e 40 f7 e1 9c 40
       3.4990904 2.3439116 3.4828458 4.9025836
000020 03 4e 0a 40 b5 cc 9d 3f 79 ec 55 3f 91 ad 12 40
       2.1610115 1.2328097 0.83563954 2.2918437
000030 0d 96 f1 3f 73 b8 a3 3f c8 07 67 3f 3c 10 f1 3f
       1.8873917 1.2790664 0.9024625 1.8833079
000040 71 d5 60 3f a7 cc 6e 3f 26 94 48 3f d9 0e 35 3f
       0.87825686 0.93281025 0.78351057 0.7072578
000050 26 2e 9f 3f ce 5b 73 3f 67 7f 99 3f 0e 6a 1c 3f
       1.2435958 0.9506196 1.1992005 0.61099327

quadjetResNetBlock.reinforce.0.conv.conv.bias f4 [1, 8, 1]
000000 d5 f3 67 c0 6d e7 32 40 dd cf 31 3e 53 e3 58 3f
       -3.6242573 2.795375 0.1736445 0.8472187
000010 24 18 09 bf 76 4a 6a 3f 20 45 0c 40 0e c2 d0 be
       -0.5355246 0.9151987 2.191719 -0.40773052

quadjetResNetBlock.reinforce.0.conv.conv.module.weight f4 [4, 8, 3]
000000 86 58 87 bf 64 d2 81 3d 44 8b 69 be f8 87 2f bf
       -1.057389 0.06338957 -0.22807032 -0.68566847
000010 d0 5b 91 3d 65 da fe be 68 b3 48 bf 21 1e 46 3d
       0.0709759 -0.49775997 -0.7839875 0.048368577
000020 05 66 63 bf ca c5 ff 3d d1 b0 1d bd bb e4 3b 3f
       -0.88827544 0.12488897 -0.038498703 0.7339589
000030 92 e3 12 3f 75 bb 4f bd 7d ff 97 3e c2 a9 1f 40
       0.57378495 -0.050715882 0.2968711 2.4947362
000040 b2 e6 ce 3e b2 be 23 3f a7 5e 1d 3e 90 40 7a 3e
       0.40410382 0.6396285 0.15368138 0.24438691
000050 2b cf 64 3f c1 84 9d 3e 0d 73 6c 3e 40 b5 ce be
       0.89378613 0.30765346 0.23090763 -0.40372658
000060 d7 0a f0 3c 87 e4 5a bc e3 d0 39 be cf 0e 84 3f
       0.029302044 -0.013360149 -0.1814609 1.0317019
000070 c0 21 20 3f 22 61 0c 3f 1b f4 f1 be 94 fc 08 3e
       0.625515 0.5483571 -0.4725655 0.13377601
000080 35 31 d2 be 3d a3 72 3f 10 f4 1e be 92 84 21 3f
       -0.41053167 0.9478033 -0.1552279 0.6309291
000090 b4 1b 32 3f ae 3e 96 be cf 61 ec be 38 1c d1 bf
       0.6957352 -0.29344696 -0.46168372 -1.6336737
0000a0 ce 8f ac be 4c e6 07 3f 63 1c c6 bd f6 77 c2 be
       -0.33703464 0.5308578 -0.09673383 -0.37982148
0000b0 d9 fe 7c 3f 65 f1 d2 bd 33 66 17 3e a0 ab 08 bf
       0.98826367 -0.102999486 0.1478508 -0.5338688
0000c0 cc 45 bd be a2 25 68 3f f3 ae 31 bc eb 75 74 bf
       -0.36967313 0.90682423 -0.010844934 -0.9549243
0000d0 7b 42 06 bf 06 43 31 3f 0f a2 c4 be 2b b9 e2 be
       -0.5244519 0.69242895 -0.3840489 -0.44281897
0000e0 e5 4f 95 3e 94 a5 de 3f 4f 1e 18 3d 73 d5 2b be
       0.29162517 1.739428 0.03713828 -0.16780643
0000f0 1b 0c 83 3d 4d 0f 3c 3f 8b bd 5b be aa 52 95 be
       0.06398793 0.7346085 -0.21459024 -0.2916463
000100 ff 79 ee 3c 30 0a 85 bb ed 37 2e 3f a1 c4 01 3f
       0.029110907 -0.0040600523 0.68054086 0.50690657
000110 f7 04 c0 be 29 35 3a bf 3d a2 74 3e f5 df 0d bf
       -0.37503788 -0.72737366 0.23890014 -0.55419856
000120 a9 a3 a1 bf aa ad 4a 3f 97 0d d6 3e b4 6e a6 3f
       -1.262807 0.7917124 0.41807243 1.3002534
000130 de 77 12 3f 3f b8 8e be ab 12 af 3e d6 cd 8b 3e
       0.5721415 -0.27874944 0.3419393 0.27305478
000140 75 52 41 3f d1 9b 66 3e e1 ea 30 3f e0 4a fd 3d
       0.75516444 0.22520377 0.69108397 0.12367797
000150 29 60 26 40 4e 32 6b be a5 bc b1 be 1f ce 49 bf
       2.5996192 -0.22968408 -0.34714237 -0.7883014
000160 5f 34 bc 3d 43 31 60 3e ac 33 c0 bd 1a c9 e8 be
       0.091896765 0.21893792 -0.09384856 -0.45465928
000170 17 ca 46 bf ac 25 37 3f 19 b3 bb 3f 73 aa dd 3d
       -0.77652115 0.7154186 1.4664031 0.10823526

quadjetResNetBlock.reinforce.1.sym.weight f4 [8, 1, 2]
000000 00 00 00 3f 00 00 00 3f 00 00 00 3f 00 00 00 3f
       0.5 0.5 0.5 0.5
000010 00 00 00 3f 00 00 00 3f 00 00 00 3f 00 00 00 3f
       0.5 0.5 0.5 0.5
000020 00 00 00 3f 00 00 00 3f 00 00 00 3f 00 00 00 3f
       0.5 0.5 0.5 0.5
000030 00 00 00 3f 00 00 00 3f 00 00 00 3f 00 00 00 3f
       0.5 0.5 0.5 0.5

quadjetResNetBlock.reinforce.1.antisym.weight f4 [8, 1, 2]
000000 00 00 00 3f 00 00 00 bf 00 00 00 3f 00 00 00 bf
       0.5 -0.5 0.5 -0.5
000010 00 00 00 3f 00 00 00 bf 00 00 00 3f 00 00 00 bf
       0.5 -0.5 0.5 -0.5
000020 00 00 00 3f 00 00 00 bf 00 00 00 3f 00 00 00 bf
       0.5 -0.5 0.5 -0.5
000030 00 00 00 3f 00 00 00 bf 00 00 00 3f 00 00 00 bf
       0.5 -0.5 0.5 -0.5

quadjetResNetBlock.reinforce.1.conv.m f4 [1, 1, 3, 8]
000000 1a a3 86 40 c2 15 9a 40 6f f3 81 40 e9 0e b3 40
       4.20741 4.815156 4.060966 5.59557
000010 d6 e0 59 40 fc 87 34 40 24 7c b8 40 38 7a fe 40
       3.404348 2.8207998 5.765154 7.9524193
000020 15 ab 0e 40 4c b6 ce 3f 33 8f 69 3f 3c 8e 1a 40
       2.229192 1.6149383 0.9123413 2.4149313
000030 09 17 00 40 f5 7c 9e 3f 5c 7e 83 3f a6 22 1a 40
       2.001406 1.2381884 1.0272937 2.4083648
000040 fc c0 e6 3e 24 22 80 40 89 cc e7 3f 48 f2 f3 3f
       0.4506911 4.0041676 1.8109294 1.9058313
000050 9d 92 68 3f fb 67 fa 3f 7d d2 9a 40 51 42 e9 3f
       0.90848714 1.9562982 4.8381944 1.8223363

quadjetResNetBlock.reinforce.1.conv.s f4 [1, 1, 3, 8]
000000 ca 3d 8d 40 14 59 79 40 46 bf 3c 40 2c be c1 40
       4.4137926 3.896062 2.9491744 6.0544643
000010 7d 6a 8e 40 73 46 4d 40 6a 7d 55 40 05 54 ab 40
       4.450499 3.2074249 3.3357797 5.3540063
000020 91 dc 15 40 7a 11 bb 3f 72 4e 4e 3f 93 ec 23 40
       2.3415873 1.4614708 0.8058845 2.5613143
000030 f5 64 20 40 f0 92 bd 3f dc 98 5a 3f 24 c5 04 40
       2.506162 1.4810467 0.85389495 2.0745325
000040 fd 81 d1 3f de 89 70 40 70 d7 2e 40 08 c3 40 40
       1.6367794 3.7584147 2.7318993 3.0119038
000050 66 92 ca 3f d2 20 49 40 71 15 47 40 e8 11 2c 40
       1.5825927 3.1426282 3.1106837 2.688593

quadjetResNetBlock.reinforce.1.conv.conv.bias f4 [1, 8, 1]
000000 f4 a8 59 3e 61 0e d7 3e 41 0d b9 3e e4 8a 44 bf
       0.21255857 0.42003158 0.36142924 -0.7677443
000010 ba 79 b7 be 38 b2 1f bf 95 d4 f3 3f 8c 6a 9f 3f
       -0.35835057 -0.62381315 1.904925 1.245439

quadjetResNetBlock.reinforce.1.conv.conv.module.weight f4 [4, 8, 3]
000000 f6 8d 1f 40 b9 f4 77 be 7a 6d 3a 3e d7 aa c8 3d
       2.4930396 -0.24214448 0.18205824 0.0979821
000010 c1 05 c4 3e d8 c8 be bd 74 e7 01 bf 03 a6 db 3d
       0.3828564 -0.09315652 -0.50743794 0.107250236
000020 ab d6 6c 3e c3 ed ce 3e 18 27 0f be 09 47 4a be
       0.23128764 0.40415773 -0.13979757 -0.1975366
000030 21 a0 c6 bf 23 e2 03 bf fe 0d 0f 3f 52 91 4e be
       -1.5517617 -0.5151693 0.55880725 -0.20172623
000040 04 7f 54 bf 41 aa a1 3d 7c 30 07 3f 9d b2 52 be
       -0.8300631 0.078938015 0.52808356 -0.20575948
000050 8b 66 35 bf f7 77 ce bf 3f 84 80 bf 40 f0 88 3f
       -0.70859593 -1.613036 -1.0040358 1.0698318
000060 03 f6 da be 15 3e 26 be 97 05 d0 3e 6f f2 c6 be
       -0.42765817 -0.1623462 0.40629265 -0.38856837
000070 ec 58 d3 be ef 8e 3d bf 59 9a 07 c0 ad 42 7e bb
       -0.4127878 -0.74046224 -2.1187956 -0.0038797066
000080 ec af e5 3d ac 9e d1 3e a0 94 2d bf dc 4d 81 3e
       0.11215195 0.4094137 -0.6780491 0.25254714
000090 2c b3 6c 3e d1 b2 4a be 8f b5 31 bf 4b bc 5e be
       0.23115224 -0.19794776 -0.6941766 -0.21751516
0000a0 97 5b 5d be bd 66 27 be af a5 1e 40 33 5e 48 be
       -0.2161697 -0.16347785 2.4788625 -0.19567184
0000b0 83 e2 71 be 95 fe 6b bf 62 30 1e bf e1 51 7e 3e
       -0.23621564 -0.92185336 -0.61792576 0.24835922
0000c0 70 4e 5f 3f 01 e0 f5 bd c3 ba 90 be b7 64 fe be
       0.8722906 -0.12005616 -0.28267488 -0.49686214
0000d0 a7 60 ab bd 38 87 39 3f e1 8e 7f 3f cb 51 47 3d
       -0.08368044 0.7247195 0.9982739 0.04866199
0000e0 d0 53 0a bf ee ab a6 bf 82 7f e4 3c ed 3e c6 be
       -0.5403414 -1.3021219 0.027892832 -0.38719884
0000f0 14 7d 9a bf 0e cc ee bd f3 0b 92 be 95 a4 e2 be
       -1.2069421 -0.11660014 -0.28524742 -0.4426619
000100 94 c5 01 3e 8b 63 8c 3f 97 82 bb bf f4 3c d0 bd
       0.12673026 1.0967878 -1.4649228 -0.10167876
000110 be 22 35 3d 52 58 be 3e be 80 c0 be 93 71 b8 3b
       0.044222586 0.37176758 -0.37598222 0.0056287735
000120 07 41 0b 3f 89 1f 12 3f d3 55 ab be 09 8c 15 c0
       0.543961 0.5707937 -0.33463916 -2.336672
000130 16 ce 10 bd d0 c3 b6 3e 8a f0 e0 3e ba d2 1f be
       -0.03535279 0.35696268 0.43933517 -0.1560773
000140 c1 69 ed be aa aa 9c bf f3 52 76 be b5 02 5b be
       -0.46369746 -1.2239583 -0.2405508 -0.21387751
000150 8f 09 4b be 1b f9 ee 3e c8 33 84 be 59 d8 90 3f
       -0.19827865 0.46674427 -0.25820756 1.1316024
000160 b1 5b ee 3e f6 fe b6 3f 9a 9f d4 bf 56 66 51 3e
       0.4655433 1.4296558 -1.6611207 0.20449194
000170 9f 54 03 3e 40 bd ae be 18 a1 5a 3e 7b 24 1a 3f
       0.12825249 -0.3412876 0.21350515 0.60211915

quadjetResNetBlock.conv.0.m f4 [1, 1, 1, 8]
000000 02 4a 66 40 bd 8e 7b 40 9d 47 37 40 65 60 96 40
       3.598267 3.930587 2.863746 4.699267
000010 b6 4e 2a 40 b6 0b fb 3f 2a 1c 8b 40 65 e8 d7 40
       2.6610541 1.9612949 4.347188 6.7471185

quadjetResNetBlock.conv.0.s f4 [1, 1, 1, 8]
000000 ec 7f 9e 40 d8 35 58 40 ee b9 47 40 20 1c c2 40
       4.9531155 3.3782864 3.1207232 6.065933
000010 60 1c 88 40 71 8c 38 40 7e c8 6e 40 e6 a4 b5 40
       4.2534637 2.8835719 3.730987 5.676379

quadjetResNetBlock.conv.0.conv.bias f4 [1, 8, 1]
000000 0a c7 e0 3c c5 16 37 3f 4f 33 ce 3f 0f 96 75 3f
       0.02743866 0.7151912 1.6109408 0.95932096
000010 f5 84 6a 3e 7d c0 00 3f 92 67 c8 3f 1a 76 89 3f
       0.22902282 0.50293714 1.5656607 1.0739167

quadjetResNetBlock.conv.0.conv.module.weight f4 [4, 8, 1]
000000 3c 82 36 3c a3 62 3a bf b3 98 ec 3e f8 dd be bd
       0.011139449 -0.7280676 0.4621025 -0.09319681
000010 7f ca 95 bf 6e 70 13 3f 2e 5c 3c be 46 71 1a 3e
       -1.1702422 0.5759343 -0.18394539 0.15082273
000020 95 44 0f 3f e6 6d 7d 3e b0 78 04 be 86 18 f8 3f
       0.5596402 0.24748954 -0.12936664 1.9382484
000030 5a 7c 32 bf 30 7d 96 bd 8a b8 cf 3e af b9 0c bf
       -0.69720995 -0.07348096 0.4057048 -0.5497083
000040 42 c4 38 3e 63 f2 e8 3d 0c a1 b5 be 39 b0 b6 be
       0.18043616 0.113743566 -0.35474432 -0.35681322
000050 5d 4c 73 3c ff 7a a4 be 29 7e cd 3e 35 53 03 3e
       0.014849749 -0.3212509 0.40135315 0.1282471
000060 53 d9 69 bf c2 c7 4a bf 67 75 91 3d ad d7 61 3f
       -0.91347235 -0.79211056 0.07102471 0.8821972
000070 4b dc c9 bc 43 bf ac 3e 06 d1 a7 3d 25 72 05 3d
       -0.024641177 0.3373967 0.08194165 0.03257956

select_q.m f4 [1, 1, 1, 8]
000000 c2 c5 39 40 47 61 46 40 30 a2 26 40 95 f1 f6 3f
       2.9026952 3.0996873 2.6036491 1.9292475
000010 8e 18 1d 40 c4 09 01 40 4a d6 96 40 98 30 5c 40
       2.4546237 2.016221 4.7136583 3.440466

select_q.s f4 [1, 1, 1, 8]
000000 e9 b2 93 40 d1 8e 8d 40 c8 8b 48 40 a0 11 52 40
       4.6155896 4.4236836 3.1335316 3.2823257
000010 30 57 6c 40 07 d9 51 40 72 bb 8d 40 d7 96 95 40
       3.6928215 3.2788713 4.4291315 4.674663

select_q.conv.module.weight f4 [1, 8, 1]
000000 8d 17 0e 3f 2d d3 f2 be ee ca 11 bd 85 32 33 bd
       0.55504686 -0.4742674 -0.03559392 -0.04374935
000010 92 31 e9 be c8 b9 e5 3e 5a a9 19 3f 76 1f f2 bc
       -0.45545632 0.44868302 0.60024035 -0.029556017

out.m f4 [1, 1, 1, 8]
000000 3d 96 9a 40 f2 07 7e 40 67 0f fc 3f f4 72 a1 3f
       4.8308396 3.969235 1.96922 1.2613206
000010 a4 83 b9 3f 87 1f ed 3f f6 42 bd 40 48 06 af 40
       1.4493299 1.8525246 5.914424 5.4695168

out.s f4 [1, 1, 1, 8]
000000 81 bb 90 40 e2 0f 98 40 4e f4 26 40 6e 2a 16 40
       4.5228887 4.751939 2.6086612 2.3463397
000010 6d 3a 03 40 f9 82 42 40 5e a1 8b 40 97 f8 96 40
       2.050441 3.039244 4.363448 4.7178454

out.conv.module.weight f4 [4, 8, 1]
000000 fc 75 3d 3e 39 93 3f 3e 03 ae 33 be 78 61 69 bd
       0.18502039 0.18708505 -0.17546849 -0.05697772
000010 4a 0c 2b bd fd e0 ec bc ba 71 c8 3d 9e 68 08 3e
       -0.041759767 -0.028915877 0.097873166 0.13321158
000020 7e 29 78 be b9 34 09 3d 40 9b 37 3d 90 6e 1c 3e
       -0.24234578 0.033497546 0.044825792 0.15276551
000030 3e 54 4e 3e cf b2 de bd bf 55 89 3e e5 0b 15 3e
       0.20149323 -0.10873949 0.26823232 0.14555319
000040 72 fd 8c 3e e2 45 7b bf d2 f5 e3 bd da 1f 49 3c
       0.27537113 -0.9815351 -0.11130871 0.01227566
000050 ea c7 1b bd f3 ed ff 3e fe f5 42 bf a0 de c6 3d
       -0.03803245 0.49986228 -0.76156604 0.09710431
000060 47 48 04 bd ac b2 95 be 12 30 77 be 03 2a c7 3e
       -0.03229549 -0.29237878 -0.24139431 0.3889924
000070 5a aa e8 3d ca be 69 3d 8e 33 3b bf 57 ce 18 bf
       0.11360617 0.057066716 -0.7312554 -0.5968985

out.conv.module.bias f4 [4]
000000 09 71 9a 3f 88 8a d2 3f 8b 88 26 c0 b9 06 25 bf
       1.2065746 1.6448526 -2.602084 -0.6446338

exp_avg f4 [4, 4, 1]
000000 78 04 37 ba 5b e6 a0 ba 0a 77 cf 3a c8 52 dd b9
       -0.0006981562 -0.0012275683 0.0015828323 -0.00042214082
000010 66 13 a8 39 cb a2 50 38 02 87 d7 ba bb bd 3b 3a
       0.0003205791 4.9742677e-05 -0.0016443434 0.0007161756
000020 5e ee 35 3a e5 49 04 39 d9 c9 73 b8 8d 1b fd 39
       0.00069401215 0.00012616029 -5.81237e-05 0.00048276447
000030 4c c6 4f ba 56 2a 38 ba 05 86 b6 38 11 c6 ff 39
       -0.0007925972 -0.00070253515 8.703399e-05 0.0004878496

exp_avg_sq f4 [4, 4, 1]
000000 37 c1 58 38 c2 b7 9c 38 fe 73 5d 38 b1 57 0e 38
       5.167836e-05 7.472887e-05 5.2798532e-05 3.3937107e-05
000010 96 34 c7 37 66 57 1e 38 0f 7b 8e 37 e5 38 c8 37
       2.3747136e-05 3.775153e-05 1.6985023e-05 2.3868351e-05
000020 12 39 2f 37 17 8d 42 37 85 9c 29 37 ee dd fb 36
       1.0444101e-05 1.1596151e-05 1.01096275e-05 7.506219e-06
000030 a7 6a 3e 37 1a a3 5e 37 97 ea 83 37 d9 0e 84 37
       1.1349714e-05 1.3270206e-05 1.5725656e-05 1.574254e-05

exp_avg f4 [1, 8, 1]
000000 5d 92 f7 b9 79 8c 03 39 70 f9 cb 36 5d 2d dc 39
       -0.0004722056 0.00012545464 6.07891e-06 0.00041995468
000010 f3 12 06 3b b5 9b c2 b8 60 e4 2b ba 39 7d 9b 39
       0.0020458072 -9.2796436e-05 -0.0006557163 0.00029657202

exp_avg_sq f4 [1, 8, 1]
000000 1f 4e cf 36 ad 2b 7e 35 8e 25 87 35 e6 75 d8 36
       6.178175e-06 9.468593e-07 1.0069214e-06 6.451027e-06
000010 d2 f3 78 37 c4 38 3c 35 e7 98 ab 36 ab c5 82 35
       1.4838721e-05 7.011806e-07 5.1139973e-06 9.743284e-07

exp_avg f4 [4, 4, 1]
000000 ed f2 82 3a 7f ba 0c 3a ff f1 02 3b 33 90 b8 b6
       0.000999061 0.0005368366 0.0019980667 -5.5004143e-06
000010 ce 07 03 39 c9 ce 09 b9 b4 da 3a b9 ae eb 98 b8
       0.00012496041 -0.00013142372 -0.00017819816 -7.2918236e-05
000020 03 62 d8 b9 81 70 ca 39 ff ca 14 ba ce 81 17 39
       -0.00041271755 0.00038612264 -0.0005676001 0.00014448838
000030 b7 72 cd 37 ed bd bc b7 45 82 4e b9 73 f8 5f 38
       2.4491323e-05 -2.2499788e-05 -0.0001969422 5.339873e-05

exp_avg_sq f4 [4, 4, 1]
000000 3f 20 3a 37 61 fa d2 37 4c 07 57 37 40 af 14 37
       1.1093972e-05 2.5150543e-05 1.2816698e-05 8.862291e-06
000010 b8 45 b4 35 b2 43 c4 35 a4 48 6c 35 2f 98 02 36
       1.3431336e-06 1.462284e-06 8.8022557e-07 1.9460092e-06
000020 5d dc 94 36 97 e2 a8 36 49 56 8c 36 9c 98 ae 36
       4.4363974e-06 5.0331687e-06 4.18237e-06 5.20337e-06
000030 fb 69 89 36 a7 a6 eb 36 a0 97 6d 36 03 ad 62 36
       4.095256e-06 7.0229466e-06 3.540401e-06 3.377733e-06

exp_avg f4 [1, 8, 1]
000000 ef 5e ab 39 c1 61 7a b9 49 74 40 3a 2c ad 32 ba
       0.00032686393 -0.00023878274 0.00073415466 -0.0006815966
000010 2a 79 ad 38 40 02 d4 39 5d d9 8e 37 f3 f9 e9 b9
       8.2718514e-05 0.00040437467 1.7028937e-05 -0.0004462745

exp_avg_sq f4 [1, 8, 1]
000000 9b 86 8e 35 c4 47 f5 35 a7 6d 97 36 63 b5 71 36
       1.0619e-06 1.8274809e-06 4.512916e-06 3.601738e-06
000010 e5 6a 04 35 83 9f a3 35 0f 62 92 34 7a 04 1b 35
       4.9329384e-07 1.219087e-06 2.7265966e-07 5.7748514e-07

exp_avg f4 [4, 8, 1]
000000 2e a3 74 b9 a2 93 f4 38 7f e5 bc 37 77 0a f6 b9
       -0.00023330442 0.000116623254 2.2518214e-05 -0.00046928573
000010 16 d8 22 39 f9 2a 44 b3 58 54 ce 39 8b 1e a4 39
       0.00015530022 -4.567389e-08 0.00039354223 0.00031303274
000020 aa d1 70 3a d3 2a fc 38 2c bc 5a 39 f4 f7 ad 38
       0.0009186516 0.00012024273 0.000208602 8.295468e-05
000030 71 31 79 ba 2b b9 b6 39 74 18 23 ba a6 bc b4 38
       -0.00095059635 0.00034851706 -0.00062216003 8.618207e-05
000040 2c aa d5 b9 69 ec 1c 38 b7 61 5b 39 de b0 da b7
       -0.00040753314 3.7413472e-05 0.00020921869 -2.6069985e-05
000050 91 cc 8a 3a 54 24 94 37 d8 c6 2f 3a 4e 07 00 39
       0.001058953 1.7659891e-05 0.000670535 0.00012209752
000060 ae 0e 12 b9 6c 02 0d 39 41 ad 0a b6 ab 9a ff 39
       -0.00013929114 0.0001344771 -2.066445e-06 0.00048752627
000070 3c 08 ee 39 84 54 81 38 fa a5 a0 39 f0 34 6a b9
       0.00045401033 6.1669416e-05 0.0003064124 -0.000223357

exp_avg_sq f4 [4, 8, 1]
000000 67 99 60 35 ce a3 29 35 06 08 d8 34 25 b4 ed 35
       8.366973e-07 6.3195773e-07 4.0238973e-07 1.7710305e-06
000010 1d fb 8b 35 cb 95 8c 35 66 cc c0 35 a8 3b dd 35
       1.0429391e-06 1.0474408e-06 1.4364603e-06 1.6483145e-06
000020 e7 e5 eb 35 20 84 b6 35 85 57 7b 35 ac c5 ae 36
       1.7575775e-06 1.359851e-06 9.3632144e-07 5.208616e-06
000030 cc 94 1e 36 8d a5 6d 36 41 8e 55 36 e9 c9 79 36
       2.3630446e-06 3.5412115e-06 3.1822276e-06 3.7221419e-06
000040 5d 8d 45 36 81 b7 01 36 03 91 5a 35 98 4d aa 36
       2.9437572e-06 1.9329311e-06 8.142235e-07 5.075428e-06
000050 85 2f 9b 36 b6 19 6c 36 fd f2 ab 36 49 f4 2b 36
       4.624892e-06 3.5181706e-06 5.1244847e-06 2.5623178e-06
000060 2c f0 bb 35 b4 1f b7 35 8c 96 1b 35 f7 d9 3b 36
       1.4002485e-06 1.3643789e-06 5.7961074e-07 2.7992044e-06
000070 0d 3c 0c 36 42 25 98 35 0f 44 13 36 01 b6 4b 36
       2.089658e-06 1.1335726e-06 2.1944322e-06 3.0355297e-06

exp_avg f4 [1, 8, 1]
000000 55 ac 04 39 af 52 1f b8 72 1b 84 b8 82 7f f2 38
       0.000126527 -3.798556e-05 -6.2993626e-05 0.000115632094
000010 52 d9 04 ba db f5 ee 37 5c 4c cc b5 43 43 15 b7
       -0.00050677836 2.8486296e-05 -1.5221408e-06 -8.896753e-06

exp_avg_sq f4 [1, 8, 1]
000000 2e e4 ca 36 93 08 4a 36 a8 78 9a 35 57 e5 0a 34
       6.0466327e-06 3.0105336e-06 1.150901e-06 1.2935685e-07
000010 6f ea 42 38 b4 7d 87 37 8b 1c 9f 34 8c 65 1f 34
       4.6471538e-05 1.615179e-05 2.9636826e-07 1.4844971e-07

exp_avg f4 [4, 4, 1]
000000 53 62 3e ba 38 61 15 3a e6 0a 10 b8 24 9d a6 ba
       -0.0007262576 0.00056983856 -3.4342425e-05 -0.0012711626
000010 ee 12 95 b9 66 f3 10 ba 23 b0 22 b9 89 00 49 ba
       -0.00028433598 -0.0005529433 -0.0001551514 -0.0007667621
000020 ff dc 17 38 06 4a 8e 39 14 51 c0 b8 5d 22 9f b8
       3.6207024e-05 0.00027139502 -9.1703754e-05 -7.5881115e-05
000030 87 2f 8a 38 b0 02 c9 b8 c9 e5 ac 38 55 b4 d5 b8
       6.5892054e-05 -9.5849275e-05 8.2444e-05 -0.00010190221

exp_avg_sq f4 [4, 4, 1]
000000 a9 75 5b 37 28 2e 9b 37 c9 e9 93 37 0a 06 40 37
       1.3080812e-05 1.8498933e-05 1.763263e-05 1.1445498e-05
000010 35 01 3a 37 b3 0d 4c 37 d1 7a 72 37 5b 72 a6 37
       1.1086745e-05 1.2162537e-05 1.44529195e-05 1.9841993e-05
000020 e0 f2 87 35 f6 08 52 35 2e 23 9f 35 04 b8 8b 35
       1.012897e-06 7.8244136e-07 1.1856662e-06 1.0409863e-06
000030 6f 7c 78 34 6c 14 85 34 a7 9a 71 34 90 0c 8f 34
       2.3142069e-07 2.478804e-07 2.2501136e-07 2.6644966e-07

exp_avg f4 [1, 8, 1]
000000 b2 90 12 39 2e 98 fd b9 f9 ee 5c b9 4b 13 8c 38
       0.00013977548 -0.00048369303 -0.00021069859 6.679314e-05
000010 a6 b0 2a 39 01 54 a2 37 44 01 b4 39 84 be cc 36
       0.0001627827 1.9351022e-05 0.00034333218 6.1018527e-06

exp_avg_sq f4 [1, 8, 1]
000000 0f d7 78 36 04 8f 9b 36 40 52 58 35 15 89 41 37
       3.708006e-06 4.636009e-06 8.058596e-07 1.1535613e-05
000010 cc 3d f4 35 6e 5f 95 34 c1 5b 8d 36 af dc 14 36
       1.8197402e-06 2.7822847e-07 4.212809e-06 2.2182173e-06

exp_avg f4 [4, 8, 1]
000000 74 7e 08 39 a0 3b 17 39 e1 d7 19 b9 68 38 bf 38
       0.00013017078 0.00014422694 -0.00014671638 9.118096e-05
000010 e9 35 dc b8 7a 93 0e b9 e6 a9 b2 b8 b3 c1 a5 b8
       -0.00010500459 -0.00013597115 -8.5193475e-05 -7.9038924e-05
000020 b7 a2 a4 b9 ff 31 f8 b6 8e c8 4b ba 73 f8 77 ba
       -0.0003140175 -7.3967963e-06 -0.00077737204 -0.0009459324
000030 19 07 23 39 8e eb 3f 39 d8 96 32 3a e2 69 9c 39
       0.00015547535 0.0001830293 0.00068126386 0.00029833528
000040 5b d7 2a b9 d5 2f 35 39 ce 30 05 b9 ea 19 c7 b9
       -0.0001629269 0.00017279324 -0.0001270205 -0.00037975545
000050 a3 12 bb b7 a8 f5 27 b9 89 3e 6c b9 7d 4f 33 b9
       -2.2300816e-05 -0.00016017875 -0.0002253001 -0.00017100382
000060 e5 44 a9 38 78 25 47 39 1c 06 a0 b9 b5 ce 7a b8
       8.0713806e-05 0.00018992077 -0.0003052213 -5.9797156e-05
000070 ba a1 a5 b9 93 78 3d b9 7f fc 90 b9 0e 70 c2 b9
       -0.00031591748 -0.00018069362 -0.00027653945 -0.0003708605
