nTupleAnalysis/pytorchModels/FvT_HCR+attention_8_np1052_seed0_lr0.01_epochs20_offset0_epoch20_before_finetuning.pkl (torch, 456455 bytes, 230 tensors)

inputEmbed.ancillaryEmbed.m f4 [1, 1, 1, 4]
0	0x40e03228	7.0061226
1	0x3f13ef1f	0.57786745
2	0x4040a57d	3.0101006
3	0x3f806603	1.0031132

inputEmbed.ancillaryEmbed.s f4 [1, 1, 1, 4]
0	0x3f5b26ca	0.8560606
1	0x3f0098ea	0.5023333
2	0x404813e7	3.1262147
3	0x4053fedb	3.3124301

inputEmbed.ancillaryEmbed.conv.module.weight f4 [4, 4, 1]
0	0x3de18315	0.1101133
1	0x3ee7921d	0.45228663
2	0xbcc217b8	-0.02369295
3	0x3dfdfd2a	0.12401803
4	0xbe1f3fec	-0.15551728
5	0xbcf09321	-0.029367032
6	0xbe0772f5	-0.13227446
7	0xbea751c2	-0.32679564
8	0xbff1d511	-1.8893148
9	0xbc7ab455	-0.015301784
10	0x3bcc9596	0.006243418
11	0x3cc5260d	0.024065996
12	0xb9567424	-0.00020451896
13	0xbe45e8f2	-0.19327143
14	0xbdaa85d3	-0.08326306
15	0x3eabfe9c	0.3359269

inputEmbed.jetEmbed.m f4 [1, 1, 1, 4]
0	0x408fc66e	4.4929724
1	0x3eff1209	0.49818447
2	0x3f6c98f4	0.9242089
3	0x40295402	2.6457524

inputEmbed.jetEmbed.s f4 [1, 1, 1, 4]
0	0x3ee1e711	0.44121602
1	0x3f67c9cf	0.9054231
2	0x3f46da31	0.77676684
3	0x3ebb2a6e	0.3655581

inputEmbed.jetEmbed.conv.bias f4 [1, 8, 1]
0	0x3ecb4def	0.39707896
1	0x3e284cc9	0.16435541
2	0xbee7cc56	-0.45273083
3	0x3bf80712	0.007569202
4	0x3f1fef5e	0.6247462
5	0xbf5c40ce	-0.86036384
6	0xbee036cd	-0.4379181
7	0x3ea7607b	0.32690796

inputEmbed.jetEmbed.conv.module.weight f4 [4, 4, 1]
0	0x3fac3b48	1.3455591
1	0xbce7097c	-0.028202765
2	0x3e1cad09	0.15300383
3	0xbd5d73db	-0.054065567
4	0xbf8ed9ec	-1.1160254
5	0xbe311fca	-0.17297283
6	0xbc4c164d	-0.012456489
7	0x4027cf32	2.6220212
8	0xbc2f5f8b	-0.010703932
9	0x3d08d8ca	0.03340987
10	0xbda8c878	-0.082413614
11	0xbd5eb982	-0.054376133
12	0xc01076a8	-2.2572422
13	0x3d5bded9	0.05367932
14	0xbe008d19	-0.12553824
15	0x4013aefd	2.3075554

inputEmbed.jetConv.m f4 [1, 1, 1, 8]
0	0x3f05321e	0.520296
1	0x3f18c61b	0.59677285
2	0x3ee1ff5c	0.44140136
3	0x3eb6310a	0.3558429
4	0x3f3adfda	0.7299782
5	0x3e565773	0.20931797
6	0x3ef44ae2	0.4771338
7	0x3f022316	0.50834787

inputEmbed.jetConv.s f4 [1, 1, 1, 8]
0	0x3f754d30	0.95820904
1	0x3fa0c0d1	1.2558843
2	0x3f50dadb	0.81583947
3	0x3f4550f8	0.77076674
4	0x3f609bba	0.8773762
5	0x3f472241	0.7778664
6	0x3f59690a	0.849259
7	0x3f7ee120	0.99562263

inputEmbed.jetConv.conv.bias f4 [1, 8, 1]
0	0xbfb73f7e	-1.4316251
1	0x3f93c208	1.1543589
2	0xbf7ae709	-0.9800878
3	0x3ff14767	1.8849915
4	0x3ff996ed	1.9499184
5	0xbfb50023	-1.4140667
6	0x3f479b11	0.7797099
7	0xbf066c4b	-0.5250899

inputEmbed.jetConv.conv.module.weight f4 [4, 8, 1]
0	0xbec9b146	-0.3939306
1	0x3e4c2448	0.19935715
2	0xbf2458dd	-0.64198095
3	0xbecae2b4	-0.39626086
4	0x3ebe0517	0.37113258
5	0x3f986196	1.1904781
6	0xbdda5960	-0.10661578
7	0x3f35a80d	0.7095955
8	0xbf2580ca	-0.6464964
9	0xbf51f9ca	-0.8202177
10	0x3dd35f02	0.10320856
11	0xbef29630	-0.4738021
12	0xbf8abc19	-1.0838653
13	0xbd85ee9d	-0.065396525
14	0x3e1cf619	0.15328254
15	0x3e3e343c	0.18574613
16	0xbf84c660	-1.0373039
17	0x3cf9af4f	0.030479101
18	0x3fa0ff99	1.2578002
19	0x3f09a532	0.53767693
20	0x3faf04b1	1.3673307
21	0x3ee73be1	0.4516287
22	0x3eff0d1f	0.49814698
23	0xbd980dd4	-0.074245125
24	0xbe3b2027	-0.18273984
25	0xbfc0bf8c	-1.5058455
26	0x3da129a0	0.078692675
27	0xbf8b9bf6	-1.090697
28	0x3f2e4194	0.68068814
29	0xbe81321a	-0.25233537
30	0xbf294219	-0.6611648
31	0x3f74249e	0.95368373

inputEmbed.othJetEmbed.m f4 [1, 1, 1, 4]
0	0x4089966e	4.299613
1	0x3ecb3e9e	0.3969621
2	0x4020a35c	2.5099707
3	0x3fb9cedf	1.4516257

inputEmbed.othJetEmbed.s f4 [1, 1, 1, 4]
0	0x3f17ed82	0.59346783
1	0x3f9071f1	1.1284772
2	0x3ee735e6	0.4515831
3	0x3f4b6a70	0.79459286

inputEmbed.othJetEmbed.conv.bias f4 [1, 8, 1]
0	0x3f6d6c5b	0.9274346
1	0x3ec31ff2	0.3811031
2	0x3f654baa	0.8956858
3	0xbe303a68	-0.1720978
4	0xbf98615d	-1.1904713
5	0xbf0053ea	-0.5012804
6	0x3d82b708	0.06382567
7	0xbee8193d	-0.45331755

inputEmbed.othJetEmbed.conv.module.weight f4 [4, 4, 1]
0	0x3f78afe2	0.97143376
1	0xbdb40eb9	-0.087918706
2	0xbfd77b07	-1.683442
3	0xbfd7148e	-1.6803148
4	0x4016e01a	2.357428
5	0xb9d099bb	-0.0003978739
6	0xbee7e3a9	-0.45290878
7	0xbd36b3f0	-0.044605196
8	0x3f573e58	0.84079504
9	0xbd9783df	-0.07398199
10	0x40d71dde	6.722396
11	0x3f25ce0a	0.64767516
12	0x3c0b6bdb	0.0085096015
13	0x3d10aaa4	0.035318986
14	0x3e4131cb	0.18866651
15	0xbfa1732e	-1.2613275

inputEmbed.othJetConv.m f4 [1, 1, 1, 8]
0	0x3f9f628a	1.2451947
1	0x3f431b46	0.7621349
2	0x405718cb	3.3608882
3	0x3e922323	0.28542432
4	0x3df1e0f1	0.11810482
5	0x3ea20bb8	0.31649566
6	0x403bff9b	2.937476
7	0x3dd76cca	0.10518797

inputEmbed.othJetConv.s f4 [1, 1, 1, 8]
0	0x3ff3dfb6	1.9052646
1	0x3f9ba355	1.215922
2	0x40978c54	4.73588
3	0x3f53da20	0.8275471
4	0x3f05d855	0.5228322
5	0x3f6566be	0.896099
6	0x4093c67c	4.617979
7	0x3eac828a	0.33693343

inputEmbed.othJetConv.conv.bias f4 [1, 8, 1]
0	0x3fe61214	1.7974267
1	0xbed00346	-0.40627497
2	0x3e4c344f	0.19941829
3	0x404b0388	3.1720905
4	0x4013bbe6	2.3083434
5	0xbf80dc13	-1.0067161
6	0x3ffa511b	1.9556001
7	0x3f9211fd	1.141174

inputEmbed.othJetConv.conv.module.weight f4 [4, 8, 1]
0	0xbf63c6c3	-0.8897516
1	0x3f8251fc	1.018127
2	0xbd0b6214	-0.03402908
3	0x3e814763	0.25249776
4	0x3dd1fbf3	0.102531336
5	0xbf7ea700	-0.9947357
6	0x3d63be82	0.055601604
7	0xbe280792	-0.16409138
8	0x3f3f1026	0.74634016
9	0xbf218429	-0.63092285
10	0x3f0c1c45	0.54730636
11	0xbee57ef5	-0.44823423
12	0xbf490204	-0.785187
13	0x3f345e48	0.7045636
14	0xbe97732e	-0.29580063
15	0xbf8e473e	-1.1115491
16	0x3f41ca78	0.7569957
17	0x3fb1c22a	1.3887379
18	0xbf3feb20	-0.7496815
19	0xbe9b764a	-0.30363685
20	0x3cf6bbe6	0.030118894
21	0xbefb35bd	-0.49064437
22	0x3f00d6e5	0.50327903
23	0xbf9388c9	-1.1526119
24	0xbf9d0d81	-1.2269746
25	0xbf7b9a48	-0.9828229
26	0xbf4727f2	-0.77795327
27	0x3d185f7f	0.037200447
28	0xbe2befcd	-0.16790695
29	0x3fcf2b07	1.6185006
30	0x3de02f90	0.10946572
31	0x3e811621	0.25212196

inputEmbed.MdPhi_embed.m f4 [1, 1, 1, 3]
0	0x40a80c3c	5.2514935
1	0x3fe58387	1.7930764
2	0x3ed751bf	0.42054555

inputEmbed.MdPhi_embed.s f4 [1, 1, 1, 3]
0	0x3f2fa34c	0.68608546
1	0x3f6afcd7	0.91792053
2	0x3efcbf40	0.49364662

inputEmbed.MdPhi_embed.conv.bias f4 [1, 8, 1]
0	0x3f37d8ef	0.7181539
1	0xbf8bdced	-1.0926796
2	0x3f8b845e	1.089977
3	0xbe9d953b	-0.30777916
4	0x4005ee4c	2.0926695
5	0x4032ae0e	2.7918735
6	0xbf8e546c	-1.1119514
7	0xbf30778e	-0.68932426

inputEmbed.MdPhi_embed.conv.module.weight f4 [4, 3, 1]
0	0xc012b192	-2.292088
1	0xbe53b1b3	-0.20673256
2	0x3f3d8d15	0.740434
3	0xc02aa877	-2.6665323
4	0xbe5dab0e	-0.21647283
5	0x3fa44326	1.2832992
6	0xbe8dee58	-0.27720904
7	0x3f83a842	1.0285723
8	0x3fa87544	1.3160787
9	0xbefb94c7	-0.49136946
10	0xbfbec55c	-1.4903979
11	0x3fb47e72	1.4101088

inputEmbed.MdPhi_conv.m f4 [1, 1, 1, 8]
0	0x3f7c0cd6	0.98457086
1	0x3e94b022	0.2904063
2	0x3f89fa67	1.0779542
3	0x3ef6f3ea	0.48232967
4	0x40069375	2.10275
5	0x4031c17e	2.7774348
6	0x3c98b624	0.018641539
7	0x3ec196c0	0.37810326

inputEmbed.MdPhi_conv.s f4 [1, 1, 1, 8]
0	0x3fb98f60	1.449688
1	0x3f80a6a1	1.0050851
2	0x3fa5350b	1.2906812
3	0x3f865bd9	1.049678
4	0x3fe62ad9	1.7981826
5	0x4009ee9b	2.1551883
6	0x3ed1bcc1	0.4096432
7	0x3f683cd3	0.9071781

inputEmbed.MdPhi_conv.conv.bias f4 [1, 8, 1]
0	0x3ece97ba	0.40350133
1	0x3f0ec091	0.55762583
2	0xbddc1e9d	-0.107480265
3	0x401c2559	2.4397795
4	0x3f47cf96	0.78051126
5	0x3ffdd46a	1.9830449
6	0xbef3f16e	-0.47645134
7	0x402a95bd	2.6653893

inputEmbed.MdPhi_conv.conv.module.weight f4 [4, 8, 1]
0	0xbf931e25	-1.1493574
1	0xbfa3b310	-1.278902
2	0xbf7166ec	-0.9429767
3	0xbf277868	-0.654181
4	0x3f0e1536	0.55501115
5	0x3e845d47	0.25852415
6	0x3f79a1e8	0.97512674
7	0x3e3e51da	0.18585911
8	0xc02e46e9	-2.723078
9	0xc046edad	-3.1082566
10	0x3ebe23d8	0.37136722
11	0x3f15f4ed	0.5857685
12	0x3f13c985	0.5772937
13	0x3ee1af8e	0.4407925
14	0xbf9b433b	-1.2129892
15	0xbeec70ad	-0.46179715
16	0x3f091553	0.53548163
17	0x3f2ceded	0.67550546
18	0x3e2c3e6d	0.16820689
19	0xbf529ce9	-0.82270676
20	0xbfae25a9	-1.3605243
21	0xbf8c94d9	-1.0982925
22	0xbfb97157	-1.4487714
23	0xbe19a705	-0.15005119
24	0x3e1fe154	0.156133
25	0xc06b314d	-3.674884
26	0xbf707308	-0.93925524
27	0xbedbe796	-0.42950124
28	0xbdb44f8e	-0.08804236
29	0x3e02aecc	0.12761992
30	0xbf0472c3	-0.5173761
31	0x3f9aa414	1.2081323

inputEmbed.dijetEmbed.m f4 [1, 1, 1, 4]
0	0x40917d09	4.546513
1	0x3f5cf158	0.8630576
2	0x3f754946	0.9581493
3	0x40a15f65	5.042895

inputEmbed.dijetEmbed.s f4 [1, 1, 1, 4]
0	0x3f38a1f9	0.7212215
1	0x3fa2a1e7	1.2705659
2	0x3f9754c1	1.182274
3	0x3f0595e6	0.5218185

inputEmbed.dijetEmbed.conv.bias f4 [1, 8, 1]
0	0xbf12e7ad	-0.5738476
1	0x3faaba69	1.3338138
2	0x3f312e1c	0.6921098
3	0xbd1ab026	-0.037765644
4	0x3da2ef59	0.07955808
5	0x3ee4e41a	0.44705278
6	0x3dee1837	0.11625712
7	0x3f067803	0.52526873

inputEmbed.dijetEmbed.conv.module.weight f4 [4, 4, 1]
0	0x3e7c5f8d	0.24645825
1	0x3e39c894	0.1814292
2	0xbe67a44d	-0.2262127
3	0xbfef28bb	-1.8684305
4	0xbdc6bf0a	-0.097044066
5	0xbb055e4b	-0.0020350392
6	0x3de86e80	0.11349201
7	0xc03d3a35	-2.9566777
8	0xbef24a56	-0.4732234
9	0x3ea8d7f0	0.32977247
10	0xbe6861e0	-0.22693586
11	0x3fbebd61	1.4901544
12	0xc0114e01	-2.270386
13	0xbd8c023a	-0.06836362
14	0xbd715e1d	-0.058927644
15	0xbdaf9ec7	-0.08575206

inputEmbed.quadjetEmbed.m f4 [1, 1, 1, 3]
0	0x408aa380	4.3324585
1	0x3fb7b3b1	1.4351712
2	0x40c347d3	6.1025176

inputEmbed.quadjetEmbed.s f4 [1, 1, 1, 3]
0	0x3f4bff8b	0.796868
1	0x3fe0c8fb	1.7561334
2	0x3ea8f32c	0.32998025

inputEmbed.quadjetEmbed.conv.bias f4 [1, 8, 1]
0	0xbfa2041c	-1.2657504
1	0x3f26045f	0.6485042
2	0x3da566cf	0.0807625
3	0xbf5935da	-0.84847796
4	0x3f03e6fb	0.51524323
5	0x3f99bb2e	1.2010248
6	0xbf604321	-0.8760243
7	0xbccc6eea	-0.024955232

inputEmbed.quadjetEmbed.conv.module.weight f4 [4, 3, 1]
0	0xbe409c66	-0.18809661
1	0x3e427722	0.18990758
2	0xbfd3048f	-1.6485766
3	0x3fdb0419	1.7110626
4	0x3ea0a9bf	0.31379506
5	0xbdfcfca4	-0.12352875
6	0x3ee17e55	0.44041696
7	0xbf04dd9b	-0.51900643
8	0xbf9e811e	-1.2383153
9	0x3f44ebc2	0.7692224
10	0x3fed8a54	1.8557839
11	0xbe2f0eb4	-0.17095453

inputEmbed.dijetConv.m f4 [1, 1, 1, 8]
0	0x3ebe4121	0.37159064
1	0x3fe18577	1.7618855
2	0x3f520c08	0.8204961
3	0x3f220ee3	0.63303965
4	0x3f248b2a	0.6427485
5	0x3f92f770	1.1481762
6	0x3f235135	0.6379579
7	0x3f7e55a0	0.99349403

inputEmbed.dijetConv.s f4 [1, 1, 1, 8]
0	0x3f74a944	0.9557078
1	0x40056e0f	2.0848424
2	0x3fa00f1d	1.2504612
3	0x3fc1cf3a	1.5141366
4	0x3f9eb8a1	1.2400094
5	0x3ffa74d9	1.9566909
6	0x3f8caf5c	1.0991015
7	0x3fa50cab	1.2894491

inputEmbed.dijetConv.conv.bias f4 [1, 8, 1]
0	0x3ea5d1a0	0.32386494
1	0x3e08bd28	0.13353407
2	0x3fb6ec18	1.42908
3	0xbedd894f	-0.4326882
4	0x3fd66e0e	1.6752336
5	0xbed2c39f	-0.41164872
6	0x3f90997c	1.129684
7	0x3d64f2b8	0.055895537

inputEmbed.dijetConv.conv.module.weight f4 [4, 8, 1]
0	0x3f397f47	0.72459835
1	0x3d9c3513	0.076273106
2	0x3dec403a	0.11535688
3	0xbccedf2a	-0.025252897
4	0xbf5c6de2	-0.8610517
5	0xbd8b3461	-0.067971
6	0x3f0f1284	0.5588763
7	0x3f859b60	1.0438042
8	0x3f189f6f	0.59618276
9	0x3fa0b287	1.2554482
10	0xbe8d0cfd	-0.27548972
11	0xbdd6425c	-0.10461876
12	0xbf3955e0	-0.7239666
13	0xbf00badd	-0.5028513
14	0x3f3f7435	0.7478669
15	0xbe3bbc66	-0.18333587
16	0xbf2f911b	-0.6858079
17	0xbfca0c6a	-1.5785038
18	0xbe04eb06	-0.1298028
19	0xbf149e78	-0.58054304
20	0xbdcd9275	-0.100377
21	0x3e2e74f4	0.17036802
22	0xbe39f6ce	-0.18160555
23	0xbd982f07	-0.07430845
24	0x3ef758b5	0.48309866
25	0x3fa96a8b	1.3235639
26	0xbe1f2325	-0.1554075
27	0xbe07dccd	-0.13267823
28	0xbc58abc5	-0.013224547
29	0xbf15f403	-0.5857546
30	0xbe169a89	-0.14707388
31	0xbeff4fbd	-0.49865523

inputEmbed.quadjetConv.m f4 [1, 1, 1, 8]
0	0xbc82a407	-0.015947355
1	0x3f85f6e0	1.0465965
2	0x3f060bab	0.52361554
3	0x3d567b8c	0.052363917
4	0x3f28bffa	0.65917933
5	0x3f9a02d7	1.2032117
6	0x3deb0e20	0.114773035
7	0x3f162a2b	0.58658093

inputEmbed.quadjetConv.s f4 [1, 1, 1, 8]
0	0x3ec9b5a7	0.39396402
1	0x3f9a895d	1.207317
2	0x3f65d671	0.89780337
3	0x3eade687	0.3396494
4	0x3fa79b22	1.3094218
5	0x3fbffbfb	1.4998773
6	0x3f37cc4c	0.7179611
7	0x3fc636f3	1.5485519

inputEmbed.quadjetConv.conv.bias f4 [1, 8, 1]
0	0x3e096f86	0.13421449
1	0x3f629ce2	0.88520634
2	0x3e3cd3c3	0.18440156
3	0x3f1bb4d1	0.6082278
4	0xbf3696c9	-0.7132383
5	0xbf5cc44f	-0.86237043
6	0xbd80187a	-0.062546685
7	0x3d8efd40	0.06981897

inputEmbed.quadjetConv.conv.module.weight f4 [4, 8, 1]
0	0x3f11e741	0.5699349
1	0x3dae1a98	0.08501166
2	0x3ec91b49	0.3927863
3	0xbf6c21d4	-0.9223912
4	0xbf0af79c	-0.5428407
5	0x3ea8c81a	0.32965165
6	0xbef56078	-0.47925162
7	0xbe8a560d	-0.27018777
8	0xbe1b3b18	-0.15159261
9	0x3dfd6b2b	0.12373956
10	0x3d891b39	0.066946454
11	0xbf4e76b9	-0.80649906
12	0x3d8d4878	0.06898588
13	0x3ed60464	0.41800225
14	0x3e753255	0.23944981
15	0xbdcc5874	-0.099778086
16	0x3da56d6b	0.080775104
17	0xbbdc2958	-0.0067187957
18	0xbea61ada	-0.3244236
19	0x3f2e8d3d	0.6818426
20	0x3ed84c6f	0.42245814
21	0xbf2e5bce	-0.6810883
22	0x3e99540c	0.29946935
23	0x3e9226c2	0.28545195
24	0x3f46f7a9	0.7772165
25	0x3ef462f4	0.47731745
26	0x3e952873	0.29132423
27	0x3cd7bea8	0.02633603
28	0x3f0b19d7	0.54336303
29	0xbdc0c92e	-0.09413372
30	0x3e73091b	0.23733942
31	0xbd4411b4	-0.047868446

dijetResNetBlock.reinforce.0.conv.m f4 [1, 1, 3, 8]
0	0x3dc5812c	0.09643778
1	0x3fa935da	1.3219559
2	0x3e5f4228	0.2180258
3	0x40062472	2.0959744
4	0x4018c7c5	2.387193
5	0x3dfc0d7d	0.1230726
6	0x400907ed	2.1411088
7	0x3fa5f375	1.2964922
8	0x3e6c4fc9	0.2307731
9	0x3f925610	1.1432514
10	0x3f768f5e	0.9631251
11	0x4025c683	2.5902412
12	0x3fe473de	1.784786
13	0xbcbe6dee	-0.023245778
14	0x3f2a5297	0.6653227
15	0x3ee3fa92	0.44527107
16	0x3f5f029f	0.87113374
17	0x3fabbb4b	1.3416532
18	0x3fd04ece	1.6274049
19	0x3f01c038	0.5068393
20	0x3ff94b3b	1.9476084
21	0x3f86e17a	1.053756
22	0x3f9eabf7	1.239623
23	0x3f23a22e	0.6391934

dijetResNetBlock.reinforce.0.conv.s f4 [1, 1, 3, 8]
0	0x3f90d184	1.1313939
1	0x3f93a193	1.1533684
2	0x3f5e8018	0.86914206
3	0x3ff9fb00	1.9529724
4	0x3fb27fc3	1.394524
5	0x3f6cd174	0.925071
6	0x4007cd77	2.1219156
7	0x40257d6c	2.5857801
8	0x3fa277be	1.2692792
9	0x3f8a6e35	1.0814883
10	0x3fc1c093	1.5136894
11	0x3fe87c26	1.8162887
12	0x3faa07cf	1.3283633
13	0x3f03bcc0	0.51459885
14	0x3fb53f93	1.4160026
15	0x3fbd6b9c	1.4798465
16	0x3fd14bc1	1.6351243
17	0x401399b9	2.3062575
18	0x3fab04ae	1.3360803
19	0x3fad8072	1.3554823
20	0x3fdcd54d	1.7252594
21	0x3fd61675	1.6725603
22	0x4002eb3f	2.0456083
23	0x3f6ebfc4	0.9326136

dijetResNetBlock.reinforce.0.conv.conv.bias f4 [1, 8, 1]
0	0x3f6e6b7f	0.93132776
1	0xbfdbeef8	-1.7182302
2	0xc02bcbc3	-2.6843116
3	0xbe406bd4	-0.18791133
4	0x3ff45c92	1.909075
5	0xbfbbc90c	-1.467073
6	0x3f38875d	0.7208155
7	0x3ffecf8a	1.9907086

dijetResNetBlock.reinforce.0.conv.conv.module.weight f4 [4, 8, 3]
0	0x3eda5268	0.42640996
1	0xbdb54f6f	-0.088530414
2	0x3fc0c6b9	1.5060645
3	0x3f17f8f3	0.5936424
4	0xbde21360	-0.11038852
5	0x3f0a0197	0.53908676
6	0xbe605b92	-0.21909931
7	0xbec8c7f7	-0.3921506
8	0x3d66314b	0.056199353
9	0x3edb8087	0.42871496
10	0x3f1d5f25	0.61473304
11	0x3fa9c79c	1.3264041
12	0xbbbff936	-0.0058585657
13	0xbe813f1d	-0.25243464
14	0xbf84c294	-1.037188
15	0xbecb0eec	-0.39659822
16	0x3d0039d2	0.03130514
17	0xbf215dfc	-0.63034034
18	0x3f216642	0.6304666
19	0xbea9a70b	-0.33135256
20	0x3edb1dd5	0.42796198
21	0xbf416728	-0.7554803
22	0x3eb11e9b	0.34593663
23	0x3ea8172f	0.32830188
24	0x3eab8107	0.33496878
25	0xbf07d1c5	-0.5305446
26	0x3f8c9072	1.0981581
27	0xbe82c669	-0.25542
28	0xbec332a7	-0.38124582
29	0x3eaf1a3d	0.34199706
30	0xbf996c13	-1.1986107
31	0xbde7bb52	-0.113150254
32	0xbfc5a914	-1.5442224
33	0xbe908753	-0.28228244
34	0x3e2d3f14	0.16918594
35	0xbdbec836	-0.09315531
36	0x3e31184a	0.17294422
37	0x3e1afe1f	0.15136002
38	0x3f4e9f50	0.8071184
39	0x3e8cf8e7	0.27533647
40	0x3f043df6	0.51657045
41	0xbf35ec4d	-0.7106369
42	0x3f40f127	0.7536797
43	0xbe958504	-0.29203045
44	0x3f571d40	0.84029007
45	0x3f39cbf1	0.72576815
46	0x3f07b396	0.530084
47	0xc0053c05	-2.0817883
48	0xbe7f5e91	-0.24938418
49	0xbe7303ec	-0.23731965
50	0xbf1026fe	-0.563095
51	0x3db27b71	0.08714951
52	0x3c0245cf	0.007951214
53	0x3ef75bfc	0.48312366
54	0x3e11ab6d	0.1422555
55	0x3f3f5701	0.7474213
56	0x3ea40c67	0.32040712
57	0xbe8c3322	-0.2738276
58	0xbce05783	-0.027385479
59	0x3ef7c201	0.483902
60	0x3e8c34ae	0.2738394
61	0xbe7fda88	-0.24985707
62	0x3fa9a6fe	1.3254087
63	0x3f57b8d7	0.8426642
64	0x3d734c7e	0.05939912
65	0x3ff9ed51	1.9525548
66	0xbe8f118c	-0.27943075
67	0xbcf51a6f	-0.029919831
68	0x3eb5321f	0.35389802
69	0x3e9fcaf2	0.31209522
70	0xbf8ac60b	-1.0841688
71	0x3fc398dd	1.5281025
72	0xbdf75a04	-0.12077716
73	0x3e9d2045	0.30688682
74	0xbdc42dfc	-0.09579083
75	0x3f3d6a3b	0.7399022
76	0x3ead8e1b	0.3389748
77	0xbe88fa6d	-0.2675356
78	0x3f2c4d45	0.67305404
79	0x3d4733fa	0.048633553
80	0xbf4ad374	-0.792289
81	0xbd860ade	-0.065450415
82	0x3c9e0341	0.019288661
83	0x3f55b766	0.8348297
84	0x3dfcad0c	0.123376936
85	0x3ed05013	0.40686092
86	0x3fa2e38a	1.272569
87	0x3f3c8c85	0.73651916
88	0xbe19470f	-0.14968513
89	0xbf2aff07	-0.6679539
90	0xbf8c5668	-1.0963869
91	0x3f4d0ab6	0.8009447
92	0x3ea9d22b	0.33168158
93	0x3efb5d3e	0.49094576
94	0x3e26c013	0.16284208
95	0xbf55f8ff	-0.8358306

dijetResNetBlock.reinforce.1.conv.m f4 [1, 1, 3, 8]
0	0xbdc3c1b3	-0.095584296
1	0x4028f34e	2.6398501
2	0x3edd6c64	0.43246758
3	0x40768309	3.8517478
4	0x4006b9e3	2.1050956
5	0x3f5b74e9	0.85725266
6	0x4051aaaa	3.2760415
7	0x3f9323df	1.1495322
8	0xbdf2b484	-0.11850837
9	0x400b786d	2.1792252
10	0x3fdd1d5d	1.7274586
11	0x4064d8a4	3.5757227
12	0x3fc1b41e	1.5133092
13	0x3f51f790	0.82018375
14	0x3f9ab276	1.2085712
15	0x3f480fec	0.78149295
16	0x40474cca	3.1140618
17	0x40211401	2.516846
18	0x3fec2244	1.8447957
19	0x3fac8e7c	1.3480983
20	0x40a274f1	5.076775
21	0x400fa450	2.2444038
22	0x4064a7fc	3.572753
23	0x402d8461	2.7112048

dijetResNetBlock.reinforce.1.conv.s f4 [1, 1, 3, 8]
0	0x3ead62fc	0.33864582
1	0x4048455e	3.1292338
2	0x3fbb2a54	1.4622293
3	0x401004d7	2.2502954
4	0x3fca2e90	1.579546
5	0x3fcd26d2	1.6027472
6	0x40362abf	2.846359
7	0x40283d84	2.6287546
8	0x3eaaefaa	0.33385974
9	0x402f15df	2.73571
10	0x402cc484	2.6994944
11	0x3fe77e05	1.8085333
12	0x3fabab14	1.3411584
13	0x3fc7d932	1.5613158
14	0x3ffa6ca2	1.9564402
15	0x3fd6507f	1.6743315
16	0x40a4ab7b	5.1459327
17	0x408d5594	4.4166965
18	0x404dc3d5	3.2150776
19	0x401ea30e	2.478702
20	0x408ca743	4.3954177
21	0x404e315a	3.2217622
22	0x40713f8f	3.7695043
23	0x403f5ecf	2.9901617

dijetResNetBlock.reinforce.1.conv.conv.bias f4 [1, 8, 1]
0	0x3ee43347	0.44570372
1	0x3f14e9eb	0.5816943
2	0x3fb7c5a8	1.4357195
3	0xbe9cb001	-0.3060303
4	0x400d9bfd	2.2126458
5	0x3ece2ec6	0.4027006
6	0x3f72ac58	0.94794226
7	0x3f1e9dfb	0.6195981

dijetResNetBlock.reinforce.1.conv.conv.module.weight f4 [4, 8, 3]
0	0x3f642675	0.8912118
1	0x3f57d172	0.84303963
2	0x3d641cac	0.055691406
3	0x3f0c1271	0.5471564
4	0x3f802f1f	1.001438
5	0xbf62451c	-0.883867
6	0xbf70651f	-0.939043
7	0xbf03922a	-0.51394904
8	0x3f1e15c7	0.6175198
9	0x3f1fb447	0.62384456
10	0x3eabd072	0.3355747
11	0xbe871b54	-0.26388037
12	0x3e556aba	0.20841494
13	0x3e928ccd	0.28623047
14	0xbe6197d2	-0.22030571
15	0xbd0524c7	-0.032505777
16	0xbeb9716c	-0.36219347
17	0xbfc2d733	-1.5221924
18	0x3ecc8266	0.39943236
19	0x3edc31d7	0.43006775
20	0x3f0f0b36	0.5587648
21	0x3e89944c	0.26870954
22	0x3de6be28	0.11266738
23	0xbf6bb4b2	-0.92072594
24	0x3dcb6dd2	0.09933056
25	0xbe03e94c	-0.12881964
26	0x3ef28296	0.47365254
27	0x3f808190	1.0039539
28	0x3ec641e1	0.38722137
29	0x3f259687	0.6468281
30	0x3f0b3749	0.54381233
31	0xbf14c4fa	-0.5811306
32	0xbf427075	-0.75952846
33	0x3f97c8a0	1.1858101
34	0x3f7c6e67	0.9860596
35	0x3eef7d4e	0.46775287
36	0xbf1dc53d	-0.61629087
37	0xbed52c36	-0.41635293
38	0xbf4498a3	-0.76795405
39	0xbf3cfd3d	-0.7382391
40	0xbed45f9f	-0.41479203
41	0x3e5c1b97	0.214949
42	0x3f3e17f3	0.74255294
43	0x3f35599d	0.70839864
44	0xbe962c6c	-0.29330766
45	0x3e45272e	0.19253227
46	0xbec85505	-0.39127365
47	0x3f246a0b	0.6422431
48	0x3f154156	0.5830282
49	0x3f487063	0.7829649
50	0xbf1032e7	-0.5632767
51	0xbedddcde	-0.4333257
52	0xbee862c4	-0.45387852
53	0xbf437ffc	-0.76367164
54	0x3f98b8bc	1.1931376
55	0x3f951f72	1.1650221
56	0x3f355eda	0.70847857
57	0x3e9caacc	0.30599058
58	0xbd90f8b5	-0.07078687
59	0xbedae667	-0.42753908
60	0xbea89b6e	-0.32931083
61	0xbf27dd31	-0.65571886
62	0x3f80c2a0	1.0059395
63	0x3e88d0b9	0.26721743
64	0x3ee09eda	0.43871194
65	0xbf2b9f83	-0.6704027
66	0xbf6958b3	-0.9115097
67	0xbfb3ded7	-1.405238
68	0xbe56af59	-0.20965327
69	0xbdf18926	-0.11793737
70	0x3ebe4245	0.37159935
71	0xbdf2e040	-0.118591785
72	0xbea93b22	-0.33052927
73	0xbf2185f3	-0.63095015
74	0xbf185808	-0.59509325
75	0x3eb3e33b	0.351343
76	0x3d51f8f9	0.05126283
77	0xbfac99a5	-1.3484389
78	0xbf363eb9	-0.7118946
79	0xbe017400	-0.12641907
80	0x3fbaa121	1.4580423
81	0x3ec4ffd7	0.3847644
82	0x3e8de5e9	0.2771447
83	0xbfd1cda1	-1.6390878
84	0xbd36dc42	-0.044643648
85	0x3e3247b9	0.17410173
86	0x3f6165e0	0.88046074
87	0xbe147c73	-0.14500599
88	0xbe93937c	-0.2882346
89	0x3f2adf53	0.66747016
90	0x3ec24988	0.37946725
91	0x3eb5bde4	0.35496438
92	0xbf10365c	-0.56332946
93	0xbe720549	-0.23634829
94	0x3e2eeb7e	0.1708202
95	0x3fbeba4c	1.4900603

dijetResNetBlock.conv.0.m f4 [1, 1, 1, 8]
0	0x3e278830	0.16360545
1	0x3f9dc5f6	1.2326038
2	0x3f172ff4	0.59057546
3	0x4015f57a	2.3431077
4	0x400580db	2.0859897
5	0x3d4c71ff	0.049913403
6	0x3fb39c92	1.4032156
7	0x3f5ef219	0.8708816

dijetResNetBlock.conv.0.s f4 [1, 1, 1, 8]
0	0x3f9a269f	1.2043036
1	0x3f8f958c	1.1217513
2	0x3fa5086d	1.2893196
3	0x3ff377e1	1.9020959
4	0x3fb28a6b	1.3948492
5	0x3f4095ff	0.75228876
6	0x3ff97724	1.9489484
7	0x40098f68	2.1493778

dijetResNetBlock.conv.0.conv.bias f4 [1, 8, 1]
0	0xbf92f716	-1.1481655
1	0x3eba4285	0.36378875
2	0xbee589b4	-0.44831622
3	0x3fc6dfe2	1.5537074
4	0xbe024220	-0.12720537
5	0xbebdb124	-0.3704921
6	0x3e749fb9	0.23889054
7	0x3e417e46	0.18895826

dijetResNetBlock.conv.0.conv.module.weight f4 [4, 8, 1]
0	0xbf369743	-0.7132456
1	0x3e2cd09b	0.16876452
2	0x3df30f35	0.11868135
3	0x3e9c93c4	0.30581486
4	0x3ec30db4	0.38096392
5	0x3ea09bc7	0.3136885
6	0x3d9edc45	0.07756857
7	0xbee7cb27	-0.4527218
8	0x3e73c610	0.23806024
9	0x3f3f2df8	0.7467952
10	0xbe8e2164	-0.2775985
11	0x3f99acd9	1.2005874
12	0xbf94ab57	-1.1614789
13	0x3f4569dd	0.7711466
14	0x3f87bf6a	1.060529
15	0x3e39dfa3	0.18151717
16	0xbef227c3	-0.4729596
17	0xbf350394	-0.70708585
18	0x3f89f5d7	1.0778149
19	0x3e85d477	0.2613866
20	0x3daedae6	0.08537845
21	0xbf36826b	-0.7129275
22	0xbda60065	-0.08105544
23	0xbf51461a	-0.8174759
24	0xbf0f2607	-0.559174
25	0xbe9dfb63	-0.30855855
26	0xbf351137	-0.7072939
27	0x3cbbaec9	0.022910492
28	0x3f086f31	0.53294665
29	0xbe9dbdb3	-0.30808792
30	0x3f2061f5	0.6264947
31	0xbd2f37fc	-0.042778

attention_oo.q_GBN.gamma f4 [8]
0	0x3e3340b3	0.1750515
1	0x3f928e31	1.1449643
2	0xbe8007f0	-0.25006056
3	0xbfcc57ab	-1.5964254
4	0xbe0deabd	-0.13859077
5	0xbe49f031	-0.19720532
6	0xbe6e894c	-0.23294562
7	0xbefc0d25	-0.49228778

attention_oo.q_GBN.bias f4 [8]
0	0x409adf6d	4.8397737
1	0xc06ea32f	-3.72871
2	0xbebe413c	-0.37159145
3	0xc069731b	-3.6476505
4	0xc022c1cc	-2.5430784
5	0x3ecd055b	0.40043148
6	0x3fe3bce9	1.7792026
7	0x3f0cb134	0.5495789

attention_oo.q_GBN.m f4 [1, 1, 1, 8]
0	0x3ff4aefe	1.9115903
1	0x3ec3710d	0.38172188
2	0x3f1735b3	0.59066314
3	0x40410e00	3.0164795
4	0x400ed652	2.231831
5	0x3dc89e5b	0.09795829
6	0x3ff209ca	1.8909237
7	0x3fb6f17d	1.4292446

attention_oo.q_GBN.s f4 [1, 1, 1, 8]
0	0x3fce386a	1.6110966
1	0x3f744010	0.9541025
2	0x3f89fe4f	1.0780734
3	0x400c48a6	2.191934
4	0x4005721a	2.0850892
5	0x3f08a0a5	0.53370124
6	0x3fc2bb00	1.5213318
7	0x3ff35738	1.9010992

attention_oo.v_GBN.gamma f4 [8]
0	0x402549fa	2.5826402
1	0x3f739d46	0.95161855
2	0x3d3e5673	0.046469163
3	0x3ee1994d	0.44062272
4	0x400cecd5	2.201955
5	0x3ef6575a	0.4811352
6	0x3fca2810	1.5793476
7	0x3f43f884	0.7655108

attention_oo.v_GBN.bias f4 [8]
0	0x3fa1c379	1.2637779
1	0xbe98f0c2	-0.29871184
2	0x4019148e	2.3918796
3	0x3f73de3a	0.95260966
4	0xbf038697	-0.5137724
5	0x3f5cc21e	0.862337
6	0x3eaa2014	0.332276
7	0x3dde5988	0.108569205

attention_oo.v_GBN.m f4 [1, 1, 1, 8]
0	0x3ff4aefe	1.9115903
1	0x3ec3710d	0.38172188
2	0x3f1735b3	0.59066314
3	0x40410e00	3.0164795
4	0x400ed652	2.231831
5	0x3dc89e5b	0.09795829
6	0x3ff209ca	1.8909237
7	0x3fb6f17d	1.4292446

attention_oo.v_GBN.s f4 [1, 1, 1, 8]
0	0x3fce386a	1.6110966
1	0x3f744010	0.9541025
2	0x3f89fe4f	1.0780734
3	0x400c48a6	2.191934
4	0x4005721a	2.0850892
5	0x3f08a0a5	0.53370124
6	0x3fc2bb00	1.5213318
7	0x3ff35738	1.9010992

attention_oo.qv_GBN.gamma f4 [8]
0	0xbfaa01ce	-1.3281801
1	0x400f5f37	2.2401865
2	0x3faf8293	1.3711723
3	0x4016ae7d	2.3544
4	0x4058f809	3.3901389
5	0x3fe5baba	1.794761
6	0xbf13596c	-0.5755832
7	0x3f612427	0.8794579

attention_oo.qv_GBN.bias f4 [8]
0	0x401f9688	2.4935627
1	0x3d982a97	0.07429998
2	0x402fe21c	2.7481756
3	0x3f9945ab	1.1974386
4	0xbfaf6e3b	-1.3705515
5	0x3f6935ca	0.910977
6	0x3f322d13	0.6960003
7	0x3e747160	0.23871374

attention_oo.qv_GBN.m f4 [1, 1, 1, 8]
0	0x3ff1140c	1.8834243
1	0x3fd5b244	1.6695027
2	0x3fa451b8	1.2837439
3	0x4082b9ba	4.0851717
4	0x3f917c38	1.1366034
5	0x409c763a	4.889432
6	0x3f86fc88	1.0545816
7	0x4029bafc	2.6520376

attention_oo.qv_GBN.s f4 [1, 1, 1, 8]
0	0x3fed93b1	1.8560697
1	0x3ff274f4	1.8941941
2	0x3fef2c8b	1.8685468
3	0x40333406	2.8000503
4	0x401e58a3	2.47416
5	0x40e5d85d	7.1826615
6	0x4009f57d	2.1556084
7	0x409849db	4.7590156

attention_oo.score_GBN.gamma f4 [2]
0	0x3ef1cc4c	0.4722618
1	0x3f9b9a6b	1.21565

attention_oo.score_GBN.bias f4 [2]
0	0x3faf7143	1.370644
1	0x3f804a1d	1.0022618

attention_oo.score_GBN.m f4 [1, 1, 1, 2]
0	0x410666d4	8.4001045
1	0x40282ed8	2.627859

attention_oo.score_GBN.s f4 [1, 1, 1, 2]
0	0x41877647	16.932753
1	0x40f93571	7.7877736

attention_oo.conv.m f4 [1, 1, 1, 8]
0	0x4070d6fa	3.7631211
1	0x3e9382f5	0.2881085
2	0x40786f3a	3.8817887
3	0x3ff612b5	1.9224459
4	0x3f7ba2e8	0.9829545
5	0x4006587a	2.0991502
6	0x3fa13c96	1.2596614
7	0x3f3742f3	0.7158653

attention_oo.conv.s f4 [1, 1, 1, 8]
0	0x3fa45f03	1.2841495
1	0x3f0952ae	0.53641784
2	0x3f12c9c1	0.573391
3	0x3f41d90e	0.75721824
4	0x4018a104	2.3848276
5	0x3fe450f0	1.78372
6	0x3f67a807	0.90490764
7	0x3f5be0d7	0.85889953

attention_oo.conv.conv.bias f4 [1, 8, 1]
0	0xbfaf8b1b	-1.3714327
1	0x3f25fd26	0.648394
2	0x3e544b42	0.20731834
3	0x3fa3f67f	1.28096
4	0x3fcf8a11	1.621401
5	0x3f2170a2	0.6306249
6	0x40603576	3.503263
7	0x3e89e502	0.26932532

attention_oo.conv.conv.module.weight f4 [4, 8, 1]
0	0xbf1ff20e	-0.6247872
1	0xbfbeb004	-1.4897466
2	0x3ebdfc48	0.37106538
3	0xbe8fb6a9	-0.28069046
4	0x3edae0f1	0.42749742
5	0xbef3097b	-0.4746817
6	0xbd2604a0	-0.040531754
7	0xbdb70705	-0.08936886
8	0xbf1387ff	-0.5762939
9	0x3cc6e38d	0.024278427
10	0x3f72a805	0.9478763
11	0x3fa06adb	1.253261
12	0xbec23018	-0.37927318
13	0x3fbd0c30	1.4769344
14	0x3f217783	0.63072985
15	0x3f49cefc	0.7883146
16	0x3dc7c930	0.0975517
17	0xbf8fa091	-1.1220876
18	0xbef7b943	-0.4838353
19	0xbfcf17f3	-1.6179184
20	0x3ef9fbb8	0.4882486
21	0xbf2c52f3	-0.6731407
22	0x3f0d296b	0.55141324
23	0x3e1e58a9	0.15463509
24	0x3f4a48da	0.7901741
25	0x3e7efb9a	0.24900666
26	0x3e2c06b9	0.1679944
27	0x3f04d72a	0.51890814
28	0xbeb3dc3e	-0.3512897
29	0x3e361143	0.17780022
30	0xbcfa5a6f	-0.0305607
31	0x3efb0fd6	0.4903552

attention_do.q_GBN.gamma f4 [8]
0	0x3f3b5a4b	0.7318465
1	0xbd1d80ee	-0.038453035
2	0xbc201d28	-0.009772576
3	0xbee92307	-0.45534536
4	0x3db5f9f4	0.088855654
5	0xbf2540f3	-0.6455223
6	0x3e59bb3f	0.21262835
7	0x3f340041	0.7031289

attention_do.q_GBN.bias f4 [8]
0	0x3fed3bba	1.8533852
1	0x3dd4bcb4	0.10387555
2	0xbc5c22c3	-0.013436022
3	0x40206698	2.5062618
4	0xc08d7d74	-4.421564
5	0xbebe164e	-0.37126392
6	0x3f899ee6	1.0751617
7	0x3f0ce2b9	0.5503345

attention_do.q_GBN.m f4 [1, 1, 1, 8]
0	0x3fe3a33c	1.778419
1	0x403b16c8	2.9232655
2	0x4068da80	3.6383362
3	0x3fd9f70e	1.702852
4	0x4085555d	4.1666703
5	0x4022f67e	2.5462947
6	0x4043963c	3.0560446
7	0x40136249	2.3028738

attention_do.q_GBN.s f4 [1, 1, 1, 8]
0	0x40322467	2.7834718
1	0x408612aa	4.1897783
2	0x4071b8bd	3.7769005
3	0x402c65d7	2.6937158
4	0x4056deb3	3.3573425
5	0x4077c264	3.8712397
6	0x4079e18d	3.9043915
7	0x40516201	3.2716067

attention_do.v_GBN.gamma f4 [8]
0	0x3ea9bf75	0.33153883
1	0x3f89f1cd	1.0776917
2	0x3fd71eed	1.6806313
3	0x3f6bc9ae	0.92104614
4	0x400c03d6	2.1877341
5	0x3f92774b	1.1442655
6	0x3fb313d4	1.3990426
7	0x3fbe2d74	1.4857621

attention_do.v_GBN.bias f4 [8]
0	0x3f8f3c38	1.1190252
1	0x3f98ac45	1.1927572
2	0x3f72da76	0.94864595
3	0x3fed2803	1.8527836
4	0x3f683112	0.90699875
5	0x3edea6a9	0.43486527
6	0x3f682fe9	0.90698105
7	0x3e02d7cd	0.12777634

attention_do.v_GBN.m f4 [1, 1, 1, 8]
0	0x3f153b92	0.5829402
1	0x3f844dd7	1.0336255
2	0x3f89abaa	1.0755513
3	0x4087df4e	4.246009
4	0x4071f056	3.780294
5	0x3f293acf	0.6610536
6	0x40abc286	5.3674955
7	0x3fd4af16	1.6615932

attention_do.v_GBN.s f4 [1, 1, 1, 8]
0	0x3f699f33	0.91258544
1	0x400d98f6	2.212461
2	0x3ff1516e	1.8852975
3	0x401d6aab	2.4596355
4	0x3fd7342f	1.68128
5	0x3f8ada4b	1.0847868
6	0x40282de2	2.6278005
7	0x3ff513c7	1.914666

attention_do.qv_GBN.gamma f4 [8]
0	0x3f8f948b	1.1217207
1	0x3f99dc50	1.2020359
2	0x3f9177b0	1.1364651
3	0x3fea0a61	1.8284417
4	0x404302db	3.0470493
5	0x3eae564e	0.3405022
6	0x3d55aa62	0.052164443
7	0xbf07a02e	-0.5297879

attention_do.qv_GBN.bias f4 [8]
0	0x3eb76fe6	0.3582756
1	0x4010cc7c	2.2624807
2	0x3f9b2491	1.2120534
3	0x40095cd0	2.1462898
4	0xbdc99407	-0.09842687
5	0x40058863	2.0864494
6	0x3f78f297	0.9724516
7	0x3f74f274	0.95682454

attention_do.qv_GBN.m f4 [1, 1, 1, 8]
0	0x3e7bd777	0.24593912
1	0x4089e5b6	4.309291
2	0x3f1305c9	0.574307
3	0x3fe07e00	1.7538452
4	0x3fe58cdb	1.7933611
5	0x3f43994c	0.7640579
6	0x3f35a890	0.7096033
7	0x405624a4	3.3459864

attention_do.qv_GBN.s f4 [1, 1, 1, 8]
0	0x3f0bb41f	0.5457172
1	0x4017fbb2	2.3747373
2	0x3f949574	1.160811
3	0x3f7854c7	0.9700436
4	0x40070b35	2.110059
5	0x401b5231	2.4268916
6	0x3fb242d9	1.392665
7	0x40030e3c	2.0477438

attention_do.score_GBN.gamma f4 [2]
0	0xbf2479d0	-0.6424837
1	0x3ed51bfa	0.41622907

attention_do.score_GBN.bias f4 [2]
0	0x3f84a29f	1.0362128
1	0x3dec4b43	0.115377925

attention_do.score_GBN.m f4 [1, 1, 1, 2]
0	0x41539980	13.224976
1	0xbf90cce2	-1.1312525

attention_do.score_GBN.s f4 [1, 1, 1, 2]
0	0x4026792e	2.6011462
1	0x41308c3c	11.034237

attention_do.conv.m f4 [1, 1, 1, 8]
0	0x3f6b1f92	0.9184505
1	0x4017e44b	2.373309
2	0x3fd055cf	1.6276187
3	0x4021f128	2.530344
4	0x3e80967d	0.25114813
5	0x3f9a582c	1.2058158
6	0x3f4a00e4	0.7890761
7	0x3f0c94cd	0.5491455

attention_do.conv.s f4 [1, 1, 1, 8]
0	0x3ef311ba	0.47474462
1	0x3f1e0788	0.6173024
2	0x3fb06ee7	1.3783845
3	0x3f74602c	0.95459247
4	0x3f33683e	0.70080936
5	0x3eed48ce	0.46344608
6	0x3eab420c	0.33448827
7	0x3ec1ac2f	0.37826678

attention_do.conv.conv.bias f4 [1, 8, 1]
0	0x3fb18f53	1.3871864
1	0x3f07e156	0.5307821
2	0x3f96e1ba	1.1787636
3	0xbddb0034	-0.10693398
4	0x3ffc64c7	1.9718255
5	0x3ed29c49	0.4113486
6	0x3f89011d	1.0703465
7	0xbee822b3	-0.45338973

attention_do.conv.conv.module.weight f4 [4, 8, 1]
0	0x3e07fcf5	0.13280089
1	0xbf167fcd	-0.5878876
2	0x3f819203	1.0122684
3	0xbf88187c	-1.0632472
4	0xbec6c2d8	-0.3882053
5	0x3f6b611b	0.91945046
6	0xbf1c12ae	-0.60966
7	0x3f08f638	0.535007
8	0x3f74cbc9	0.9562345
9	0xbf5ec9cd	-0.87026674
10	0xbf6a5e61	-0.9155026
11	0x3f38d800	0.7220459
12	0xbec39383	-0.3819848
13	0x3e184d37	0.14873205
14	0x3fca2fa5	1.579579
15	0xbfd3a378	-1.6534262
16	0xbe1a5805	-0.1507264
17	0xbfcb73bb	-1.5894693
18	0xbf145d0c	-0.5795448
19	0xbff68ac6	-1.92611
20	0xbf084247	-0.5322613
21	0x3f8593db	1.0435747
22	0xbe6aebce	-0.22941515
23	0xbedd6135	-0.43238226
24	0xbfb7f26c	-1.4370856
25	0xbfc1e13c	-1.5146861
26	0x3ff8eb00	1.9446716
27	0x3ede01b6	0.4336068
28	0xbeddde42	-0.43333632
29	0x3ebe44e9	0.3716195
30	0xbf2d9367	-0.67803043
31	0x3ff96d90	1.9486561

quadjetResNetBlock.reinforce.0.sym.weight f4 [8, 1, 2]
0	0x3f000000	0.5
1	0x3f000000	0.5
2	0x3f000000	0.5
3	0x3f000000	0.5
4	0x3f000000	0.5
5	0x3f000000	0.5
6	0x3f000000	0.5
7	0x3f000000	0.5
8	0x3f000000	0.5
9	0x3f000000	0.5
10	0x3f000000	0.5
11	0x3f000000	0.5
12	0x3f000000	0.5
13	0x3f000000	0.5
14	0x3f000000	0.5
15	0x3f000000	0.5

quadjetResNetBlock.reinforce.0.antisym.weight f4 [8, 1, 2]
0	0x3f000000	0.5
1	0xbf000000	-0.5
2	0x3f000000	0.5
3	0xbf000000	-0.5
4	0x3f000000	0.5
5	0xbf000000	-0.5
6	0x3f000000	0.5
7	0xbf000000	-0.5
8	0x3f000000	0.5
9	0xbf000000	-0.5
10	0x3f000000	0.5
11	0xbf000000	-0.5
12	0x3f000000	0.5
13	0xbf000000	-0.5
14	0x3f000000	0.5
15	0xbf000000	-0.5

quadjetResNetBlock.reinforce.0.conv.m f4 [1, 1, 3, 8]
0	0x404fcee7	3.2470033
1	0x40539738	3.3061047
2	0x408eb0fc	4.4591045
3	0x3fac03f5	1.3438708
4	0x40c70c71	6.2202687
5	0x4039c350	2.902546
6	0x407ad066	3.9189696
7	0x3fe4b673	1.7868179
8	0x3fa44f10	1.2836628
9	0x3fecec65	1.8509642
10	0x3fde054e	1.7345369
11	0x3f1ee8b2	0.62073815
12	0x3fc46ffc	1.5346675
13	0x3fd57053	1.6674904
14	0x3fcb61a4	1.5889173
15	0x3f6a90b6	0.9162706
16	0x3f148fce	0.5803193
17	0x3f58d0e4	0.8469374
18	0x3ed7b9ee	0.4213404
19	0x3f142eb9	0.57883793
20	0x3e5dbfc1	0.2165518
21	0xbdbd8e1a	-0.09255619
22	0x3e939e92	0.28831917
23	0x3e9ef52e	0.31046432

quadjetResNetBlock.reinforce.0.conv.s f4 [1, 1, 3, 8]
0	0x406d4607	3.7073991
1	0x4069b5c1	3.6517184
2	0x406fd65c	3.7474585
3	0x3ff9b22c	1.9507499
4	0x408b5afc	4.3548565
5	0x404c8072	3.1953397
6	0x40513eda	3.2694612
7	0x4035527e	2.83316
8	0x3fbfc8f0	1.4983196
9	0x4000bf86	2.0116897
10	0x3fc73f7c	1.5566249
11	0x3f499a45	0.7875102
12	0x3faaee0f	1.33539
13	0x3fe389a8	1.7776384
14	0x3fb91369	1.4459049
15	0x3f9c1a3e	1.2195508
16	0x3f817438	1.0113592
17	0x3f3db151	0.7409869
18	0x3f63dd5e	0.89009655
19	0x3f89230f	1.0713824
20	0x3f74479e	0.9542178
21	0x3ecacd51	0.3960977
22	0x3f0db701	0.55357367
23	0x3f016ea6	0.5055946

quadjetResNetBlock.reinforce.0.conv.conv.bias f4 [1, 8, 1]
0	0x3f24d073	0.6438057
1	0xbf6ee7ef	-0.9332265
2	0x3f417d3a	0.75581706
3	0x404bf5c8	3.1868763
4	0xbfc0380e	-1.5017107
5	0xbf0d78d7	-0.5526251
6	0xbed8ab96	-0.4231841
7	0x3f34ccaf	0.7062482

quadjetResNetBlock.reinforce.0.conv.conv.module.weight f4 [4, 8, 3]
0	0xbfa71faf	-1.3056544
1	0xbe8798d1	-0.26483777
2	0xbc75abb4	-0.0149945505
3	0x3e2ec459	0.17067088
4	0x3daefffd	0.0854492
5	0xbf0fbbba	-0.56145823
6	0xbf48ee2c	-0.7848842
7	0xbf147c85	-0.580025
8	0x3f11b87b	0.5692212
9	0x3ea30dd4	0.31846488
10	0xbea41e5e	-0.32054418
11	0x3f27bb5b	0.65520257
12	0x3fe42231	1.7822934
13	0x3e81e1df	0.25367638
14	0xbce9edc2	-0.028555755
15	0x3e1c3aac	0.15256757
16	0x3cef01f3	0.029175734
17	0x3e892530	0.26786184
18	0x3fa7d3fe	1.311157
19	0x3e7b134d	0.24519081
20	0xbe92696f	-0.28596064
21	0xbe7fba00	-0.24973297
22	0x3c5b06e5	0.013368343
23	0x3ee3a555	0.44462076
24	0xbd9476d6	-0.07249229
25	0xbf148678	-0.58017683
26	0x3f7c2a24	0.985018
27	0x3f6ae552	0.91756165
28	0x3d32164c	0.043478295
29	0xbfa8b7a4	-1.3181043
30	0xbd9356b7	-0.07194274
31	0xbf3c722b	-0.73611706
32	0xbe0ebf8e	-0.1394026
33	0x3f55a1d0	0.8345003
34	0x3f0c9b34	0.5492432
35	0x3e83ac01	0.25717166
36	0x3e907835	0.2821671
37	0xbccfcfb5	-0.025367597
38	0x3e827897	0.25482628
39	0xbf9df7dc	-1.2341266
40	0xbf2c5f8b	-0.67333287
41	0xbda4ee39	-0.0805325
42	0x4013d628	2.309946
43	0x3f822e2e	1.0170343
44	0xbe8680fd	-0.26270285
45	0x3f7cde74	0.98776937
46	0xbe2bb658	-0.16768777
47	0x3e4fb885	0.20285232
48	0x3e29804a	0.16552845
49	0x3e6ff141	0.23431875
50	0xbd0b6aae	-0.034037285
51	0x3db4370a	0.0879956
52	0xbfa462d2	-1.2842658
53	0xbd9adf3d	-0.075621106
54	0xbda352d4	-0.079747826
55	0x3d35dd71	0.044400636
56	0xbf4ef4ae	-0.808421
57	0x3f4f43db	0.80962914
58	0xbf1335ee	-0.57504165
59	0xbeb5e8bc	-0.35529125
60	0xbf9bc263	-1.2168697
61	0xbfc7d54e	-1.561197
62	0xbdf59d6b	-0.11992916
63	0xbff352ec	-1.9009681
64	0xbe92e728	-0.28691983
65	0xbf8595a6	-1.0436294
66	0xbe858087	-0.2607462
67	0xbf0a7e2f	-0.5409879
68	0x3defc81f	0.11708092
69	0x3f986980	1.1907196
70	0xbf8712fc	-1.0552669
71	0x3eb3682c	0.35040414
72	0xbfc31057	-1.5239362
73	0x3d7f87ea	0.062385477
74	0xbe45a9a8	-0.19303
75	0x3e0035e4	0.12520558
76	0x3e197c35	0.14988787
77	0xbe8c588e	-0.27411312
78	0x3eb44444	0.35208333
79	0xbf0e7362	-0.5564481
80	0xbdef0b64	-0.116720945
81	0xbf81c872	-1.0139296
82	0xbee560fa	-0.4480055
83	0xbead7b90	-0.33883333
84	0x3e71be14	0.23607665
85	0x3cb2fcee	0.021849122
86	0x3e843ffc	0.25830066
87	0x3e718263	0.23584895
88	0x3e85a435	0.26101843
89	0x3e0cecbe	0.13762185
90	0x3f7137ed	0.9422596
91	0x3f2c69be	0.6734885
92	0x3d511d31	0.05105323
93	0x3fcf2ca6	1.6185501
94	0xbe917928	-0.28412747
95	0x3ef92b78	0.48665977

quadjetResNetBlock.reinforce.1.sym.weight f4 [8, 1, 2]
0	0x3f000000	0.5
1	0x3f000000	0.5
2	0x3f000000	0.5
3	0x3f000000	0.5
4	0x3f000000	0.5
5	0x3f000000	0.5
6	0x3f000000	0.5
7	0x3f000000	0.5
8	0x3f000000	0.5
9	0x3f000000	0.5
10	0x3f000000	0.5
11	0x3f000000	0.5
12	0x3f000000	0.5
13	0x3f000000	0.5
14	0x3f000000	0.5
15	0x3f000000	0.5

quadjetResNetBlock.reinforce.1.antisym.weight f4 [8, 1, 2]
0	0x3f000000	0.5
1	0xbf000000	-0.5
2	0x3f000000	0.5
3	0xbf000000	-0.5
4	0x3f000000	0.5
5	0xbf000000	-0.5
6	0x3f000000	0.5
7	0xbf000000	-0.5
8	0x3f000000	0.5
9	0xbf000000	-0.5
10	0x3f000000	0.5
11	0xbf000000	-0.5
12	0x3f000000	0.5
13	0xbf000000	-0.5
14	0x3f000000	0.5
15	0xbf000000	-0.5

quadjetResNetBlock.reinforce.1.conv.m f4 [1, 1, 3, 8]
0	0x4088a63e	4.270293
1	0x40626cc0	3.5378876
2	0x40b7a33c	5.738676
3	0x3ff6a7c3	1.9269947
4	0x40f388ae	7.6104345
5	0x4047afde	3.120109
6	0x4096ffd1	4.7187276
7	0x4012b858	2.2925014
8	0x3f919cab	1.1375936
9	0x3ff6dd61	1.928631
10	0x3fc279e8	1.5193453
11	0x3f592846	0.8482708
12	0x3fa1ac72	1.2630751
13	0x3febea0c	1.84308
14	0x3fab6696	1.3390682
15	0x3f9e23a3	1.2354625
16	0x3fe34d34	1.7757936
17	0x40027881	2.038605
18	0x400b0d38	2.1726818
19	0x40747112	3.8194013
20	0x3f03ef2f	0.5153684
21	0x3f9eedec	1.2416358
22	0x3faf527d	1.3697048
23	0x3fc0de89	1.5067912

quadjetResNetBlock.reinforce.1.conv.s f4 [1, 1, 3, 8]
0	0x40766e53	3.8504837
1	0x406efaa8	3.7340488
2	0x4057e90d	3.3735993
3	0x40042ca1	2.065224
4	0x4082ca21	4.087174
5	0x406a5fe1	3.662102
6	0x40381bba	2.8766923
7	0x406dd9b4	3.7164125
8	0x3f8b49af	1.0881861
9	0x4000fcc7	2.0154283
10	0x3fa62f6c	1.2983222
11	0x3f62be95	0.88572055
12	0x3f854bfa	1.0413811
13	0x4004da4d	2.075824
14	0x3f8cd5c8	1.1002741
15	0x3fe2029a	1.7657044
16	0x40092300	2.1427612
17	0x4054f7ec	3.327632
18	0x402c8967	2.6958864
19	0x4044f981	3.0777285
20	0x3fd0fa2c	1.6326346
21	0x400f1576	2.2356849
22	0x401711ce	2.3604617
23	0x401ac612	2.4183393

quadjetResNetBlock.reinforce.1.conv.conv.bias f4 [1, 8, 1]
0	0x3ea2408a	0.31689864
1	0x3fa2b815	1.2712427
2	0x3d0ef3ac	0.034900352
3	0xbf499e8a	-0.78757536
4	0xbe5d76b8	-0.21627319
5	0xbf8af879	-1.0857078
6	0x3e5bdcd2	0.21470955
7	0xbe168b4e	-0.14701578

quadjetResNetBlock.reinforce.1.conv.conv.module.weight f4 [4, 8, 3]
0	0xbe45aa6a	-0.19303289
1	0x3e0c607e	0.13708684
2	0xbe7883c7	-0.24269019
3	0x4013c5e4	2.3089533
4	0xbe5ad0f8	-0.21368778
5	0x3e9e7c68	0.3095429
6	0xbf47ffae	-0.7812451
7	0xbf1943da	-0.5986916
8	0x3de9d032	0.11416663
9	0x4007e4df	2.1233442
10	0xbede1c8b	-0.43381152
11	0xbf8bc830	-1.0920467
12	0xbf205dce	-0.62643135
13	0x3c6159ed	0.01375435
14	0x3df0e350	0.117621064
15	0xbfa2e0c0	-1.2724838
16	0xbdc3a236	-0.09552424
17	0xbe3621d4	-0.17786342
18	0x3ed22fdc	0.4105214
19	0x3ca75a39	0.020428764
20	0xbf7a23c2	-0.9771081
21	0xbf8a9eb2	-1.082968
22	0x3dcf3246	0.10117011
23	0xbf9347fa	-1.150634
24	0xbfab4a72	-1.3382094
25	0xbdf57bba	-0.119864896
26	0xbde8f5bf	-0.11374997
27	0xbf07e8e3	-0.5308973
28	0xbc3058bf	-0.010763346
29	0x3e39cdee	0.18144962
30	0x3e347528	0.17622817
31	0xbebb3c3e	-0.365694
32	0x3dd26bcd	0.102744676
33	0x3ebc1918	0.36737895
34	0xbe574be7	-0.21025048
35	0x3fa4b9ed	1.286924
36	0x402f512d	2.7393296
37	0x3dcce25e	0.100041136
38	0xbf53f7fa	-0.8280026
39	0x3f0e1106	0.55494726
40	0x3d62f500	0.05540943
41	0xbef48d25	-0.47763935
42	0x3fabfd71	1.3436719
43	0x3e22f63d	0.15914245
44	0xbea81352	-0.3282724
45	0xbea53842	-0.32269484
46	0x3e887678	0.26652884
47	0x3e3d55a6	0.18489704
48	0x3f3afa2c	0.7303798
49	0x3e6ff940	0.23434925
50	0x3c9019fc	0.017590515
51	0xbf938ecf	-1.1527957
52	0x3e5144c0	0.20436382
53	0x3eecd4c4	0.46256077
54	0x3ce9626d	0.028489316
55	0xbf247823	-0.64245814
56	0xbaf73471	-0.0018860233
57	0x3eab935e	0.3351087
58	0x3ee13948	0.43989015
59	0xbf30da66	-0.6908325
60	0xc03a4452	-2.91042
61	0x3d225d42	0.03963972
62	0x3ebd0305	0.36916366
63	0x3dbecb83	0.093161605
64	0x3e8a03ed	0.2695612
65	0x3e649b19	0.2232479
66	0x3ea4706a	0.32117015
67	0x3f0acda2	0.5422002
68	0x3f676cbf	0.9040031
69	0xbf04b378	-0.5183635
70	0xbd8fd2a0	-0.070225954
71	0x3dcbcf30	0.09951627
72	0xbf07c6b3	-0.53037566
73	0xbdeec07d	-0.11657808
74	0x3d852644	0.06501439
75	0xbfad3206	-1.3530891
76	0xbdb7c3b5	-0.08972875
77	0xbf4327c8	-0.76232576
78	0x3f9aea2a	1.2102711
79	0x3c63bfed	0.013900739
80	0xbf0af9cf	-0.5428743
81	0x3fcd3b45	1.6033713
82	0x3edb29bd	0.4280528
83	0xbf79daf1	-0.97599703
84	0x3f629a03	0.88516253
85	0x3e99cd73	0.30039558
86	0xbecc25a4	-0.39872468
87	0x3f22727a	0.6345593
88	0xbe39b40f	-0.18135093
89	0x3f6970f7	0.91187996
90	0xbed718f2	-0.4201122
91	0x3d63e68b	0.055639785
92	0x3e33704e	0.1752331
93	0xbfc5d538	-1.5455694
94	0xbecf8384	-0.40530026
95	0x3e40d823	0.1883245

quadjetResNetBlock.conv.0.m f4 [1, 1, 1, 8]
0	0x404fcee7	3.2470033
1	0x40539738	3.3061047
2	0x408eb0fc	4.4591045
3	0x3fac03f4	1.3438706
4	0x40c70c71	6.2202687
5	0x4039c350	2.902546
6	0x407ad066	3.9189696
7	0x3fe4b672	1.7868178

quadjetResNetBlock.conv.0.s f4 [1, 1, 1, 8]
0	0x40866528	4.199848
1	0x4091f8be	4.561614
2	0x408d38ee	4.4131994
3	0x400c6238	2.1934948
4	0x4099d057	4.806682
5	0x40809a98	4.0188713
6	0x407a60ce	3.9121585
7	0x404def34	3.2177248

quadjetResNetBlock.conv.0.conv.bias f4 [1, 8, 1]
0	0x3ff8e16a	1.9443791
1	0xbe9500d4	-0.29102194
2	0x3fdaf961	1.7107354
3	0x3deab030	0.11459386
4	0x3fdc2fc5	1.7202078
5	0xbeb55ed9	-0.35423926
6	0x3fad542d	1.3541313
7	0x3d82c9c1	0.06386138

quadjetResNetBlock.conv.0.conv.module.weight f4 [4, 8, 1]
0	0xbfc51840	-1.5398026
1	0xbf879016	-1.0590847
2	0xbe9e9308	-0.3097155
3	0x3fdf2107	1.7431954
4	0x3ee34d6d	0.4439501
5	0x3f5ddd34	0.86665654
6	0xbf30c461	-0.6904965
7	0xbf73cdad	-0.9523571
8	0xbf017319	-0.5056625
9	0x3e69ae82	0.22820476
10	0xbe6b26d8	-0.22964036
11	0xbf5ba0e1	-0.85792357
12	0xbee0328f	-0.43788573
13	0xbf6b59ba	-0.91933787
14	0xbf4114db	-0.7542245
15	0xbf99a73c	-1.2004161
16	0x3eb0db13	0.3454214
17	0xbeafd858	-0.34344745
18	0xbf3feabd	-0.7496756
19	0xbf0bef62	-0.54662144
20	0x3ecec15c	0.40381896
21	0xbf1eecf5	-0.6208032
22	0x3f62a379	0.8853069
23	0x3f1b9aa1	0.6078282
24	0xbf8e791e	-1.1130712
25	0xbf29ec94	-0.66376615
26	0xbefc176b	-0.49236616
27	0xbee44314	-0.44582427
28	0x3a6575fd	0.00087532384
29	0xbee357b8	-0.44402862
30	0x3ee73c4b	0.45163187
31	0xbf8e62c7	-1.1123894

select_q.m f4 [1, 1, 1, 8]
0	0x40114a24	2.2701502
1	0x405b9270	3.4308128
2	0x40274cf0	2.614071
3	0x400e181b	2.2202213
4	0x3fcd4d0f	1.6039141
5	0x3fa3f850	1.2810154
6	0x4023f298	2.5616817
7	0x400dc70e	2.2152743

select_q.s f4 [1, 1, 1, 8]
0	0x40418382	3.0236516
1	0x406fe4ac	3.748332
2	0x4072f329	3.7960913
3	0x40331621	2.7982256
4	0x404500d4	3.0781755
5	0x402c848e	2.6955905
6	0x406bc6ec	3.6840162
7	0x40857838	4.170925

select_q.conv.module.weight f4 [1, 8, 1]
0	0xbe0fc14c	-0.1403858
1	0xbf0f3102	-0.55934155
2	0x3e40d049	0.18829454
3	0xbf121f1f	-0.5707874
4	0x3e94513a	0.2896822
5	0x3ed47b61	0.4150038
6	0xbe54eabe	-0.20792672
7	0x3f73f00c	0.9528816

out.m f4 [1, 1, 1, 8]
0	0x401478e3	2.3198783
1	0x4057d316	3.3722587
2	0x402148c6	2.5200667
3	0x3f6cfeba	0.9257618
4	0x3fa99823	1.3249553
5	0x3fed8295	1.8555475
6	0x4052a286	3.2911696
7	0x40a52520	5.160782

out.s f4 [1, 1, 1, 8]
0	0x4035f5a2	2.8431172
1	0x40801563	4.0026107
2	0x406fc35f	3.7462995
3	0x3fafc8c8	1.3733149
4	0x4027064c	2.6097593
5	0x4043d8fe	3.0601192
6	0x4083df4e	4.121009
7	0x409927f7	4.7861285

out.conv.module.weight f4 [4, 8, 1]
0	0x3db22278	0.08697981
1	0x3de3e3d5	0.1112744
2	0xbe3afe54	-0.18261081
3	0x3de060b0	0.10955942
4	0xbc15fb32	-0.009154128
5	0xbe8f580f	-0.2799687
6	0x3e8593ed	0.2608942
7	0x3e621fda	0.22082463
8	0xbe821074	-0.25403178
9	0x3dbb0219	0.091312595
10	0xbe027698	-0.12740552
11	0x3d8bd5a8	0.06827861
12	0x3e8a3c7d	0.26999274
13	0x3aad9fee	0.0013246515
14	0x3d949585	0.07255081
15	0x3a9dce85	0.0012039697
16	0x3eb1e58a	0.34745437
17	0x3c4659ec	0.0121064
18	0x3f31d20a	0.6946112
19	0x3e242573	0.1602991
20	0xbe8b43cd	-0.27200165
21	0xbe0316e1	-0.12801696
22	0xbf85e605	-1.0460821
23	0xbd6afb57	-0.057368603
24	0x3cfc201a	0.030777026
25	0xbf63ae21	-0.88937575
26	0x3bc207e3	0.0059213503
27	0x3e0d83bf	0.13819788
28	0xbcae65a6	-0.021288704
29	0x3ef23d6b	0.47312483
30	0xbe98c7b1	-0.29839852
31	0xbd1e8085	-0.038696785

out.conv.module.bias f4 [4]
0	0x3f99d590	1.2018299
1	0x3fce9836	1.6140201
2	0xc030290f	-2.752506
3	0xbf1b46ed	-0.606551

exp_avg f4 [4, 4, 1]
0	0x3998296f	0.0002902257
1	0x3a8a299a	0.0010540963
2	0xba50f0f0	-0.0007970473
3	0xb9da1dee	-0.000416025
4	0xba8a32f1	-0.0010543746
5	0xb988e3fa	-0.00026109797
6	0xb93c7422	-0.0001797234
7	0xb900453e	-0.00012232826
8	0xb9a3cef5	-0.00031243978
9	0xb98739cd	-0.00025792271
10	0x3a12e23b	0.0005603169
11	0xbaa66b04	-0.0012696688
12	0xb99945a3	-0.00029234317
13	0xba93f9fc	-0.0011289711
14	0x3a30c09a	0.0006742567
15	0xba565a42	-0.00081769016

exp_avg_sq f4 [4, 4, 1]
0	0x375096d8	1.2432887e-05
1	0x37ba2e3f	2.2194463e-05
2	0x37242e26	9.7859065e-06
3	0x3709867a	8.197147e-06
4	0x38114114	3.4631303e-05
5	0x38643939	5.441273e-05
6	0x37e3d3f0	2.71592e-05
7	0x378bbc33	1.6657728e-05
8	0x3781b661	1.5462925e-05
9	0x3751c6fb	1.25036995e-05
10	0x378516ed	1.5865511e-05
11	0x377b8a74	1.4993002e-05
12	0x3820bddb	3.832379e-05
13	0x382f06b2	4.1729487e-05
14	0x381c9cd0	3.733934e-05
15	0x3825add4	3.9500956e-05

exp_avg f4 [1, 8, 1]
0	0x3946acdc	0.00018947147
1	0x39b6de27	0.00034879262
2	0x398c70d4	0.00026786944
3	0x3a3854a0	0.0007031653
4	0x39247c11	0.00015686477
5	0xb8e92077	-0.00011116353
6	0x390b67bb	0.00013294716
7	0xb97d2a41	-0.00024143701

exp_avg_sq f4 [1, 8, 1]
0	0x3515e92e	5.5846147e-07
1	0x3633f2d5	2.6814425e-06
2	0x36d8c6c7	6.4604424e-06
3	0x37233b57	9.729373e-06
4	0x36c8ca21	5.9839954e-06
5	0x3583cb5f	9.819449e-07
6	0x362d04d2	2.5781815e-06
7	0x363ee264	2.8443983e-06

exp_avg f4 [4, 4, 1]
0	0x38de4527	0.000105986655
1	0xbac866db	-0.0015289442
2	0xb9c7c01c	-0.0003809937
3	0xb9939e64	-0.00028156035
4	0x38ab4201	8.1662096e-05
5	0x3982f6ff	0.0002497956
6	0xb9716454	-0.00023020926
7	0x389be39c	7.4333715e-05
8	0xb9ddccef	-0.00042305092
9	0x3a445d6b	0.0007490727
10	0x38eab8fa	0.00011192444
11	0x39149e9f	0.00014173471
12	0xb906d427	-0.00012858269
13	0x3ac0a539	0.0014697678
14	0xb88ebe98	-6.8065885e-05
15	0x3848bb7d	4.7858328e-05

exp_avg_sq f4 [4, 4, 1]
0	0x3631b433	2.6479945e-06
1	0x36ca936a	6.0372304e-06
2	0x3676518a	3.6704319e-06
3	0x365ccd26	3.2901967e-06
4	0x362d77a2	2.5848644e-06
5	0x3655df62	3.18695e-06
6	0x35d15f5b	1.5599466e-06
7	0x3673d4c4	3.6333668e-06
8	0x368b3482	4.1486355e-06
9	0x36dc066b	6.557258e-06
10	0x3697be04	4.5222714e-06
11	0x36901e89	4.295089e-06
12	0x36d20902	6.2595363e-06
13	0x374393c1	1.1657307e-05
14	0x36e37e30	6.7798173e-06
15	0x36c15610	5.761867e-06

exp_avg f4 [1, 8, 1]
0	0xb9620eb5	-0.00021558518
1	0xb94fd15d	-0.00019819052
2	0x3958bf16	0.0002067055
3	0xb98ec0a2	-0.00027227873
4	0x38bd7d69	9.035582e-05
5	0x389e06da	7.535303e-05
6	0xb7b3cd8e	-2.1434182e-05
7	0x3884cbea	6.3322324e-05

exp_avg_sq f4 [1, 8, 1]
0	0x34daec53	4.0777613e-07
1	0x358b96bd	1.0400178e-06
2	0x35ca4a68	1.5071828e-06
3	0x367669b1	3.6718377e-06
4	0x35465b85	7.3893926e-07
5	0x342caba8	1.6081196e-07
6	0x361500d5	2.2203214e-06
7	0x33428195	4.5287e-08

exp_avg f4 [4, 8, 1]
0	0x38882690	6.492168e-05
1	0x38a80565	8.011869e-05
2	0x38c6c01c	9.477159e-05
3	0xb82fd0a6	-4.191757e-05
4	0xb868a623	-5.5467837e-05
5	0xb9bfea5e	-0.00036604976
6	0x38b8c0b0	8.8096946e-05
7	0xb9d32359	-0.00040271392
8	0xb96b2170	-0.00022423803
9	0xb9223628	-0.00015469699
10	0x37a8cd5e	2.0122792e-05
11	0xb90c595e	-0.00013384732
12	0x3998191f	0.00029010416
13	0xb91c16f3	-0.00014885869
14	0x388718c0	6.441912e-05
15	0xb9bcac51	-0.0003598654
16	0xb98d7ade	-0.0002698516
17	0xb7ac0c14	-2.0509622e-05
18	0x36002391	1.9094189e-06
19	0x399a0d1b	0.00029382933
20	0x39694f0a	0.00022250056
21	0xb91dd692	-0.0001505262
22	0xb98228fc	-0.00024826068
23	0xb99f1be7	-0.00030347632
24	0x393c0693	0.00017931526
25	0xb8eed1a3	-0.00011387772
26	0x37bb5bb2	2.2334836e-05
27	0xb9b5df49	-0.0003468937
28	0xb9a6faae	-0.00031848758
29	0xb927f381	-0.00016017073
30	0x36748eb2	3.6441893e-06
31	0x36fc6fa3	7.5231815e-06

exp_avg_sq f4 [4, 8, 1]
0	0x35aeebe5	1.3032665e-06
1	0x35cc4127	1.5218146e-06
2	0x35b3c67f	1.3394309e-06
3	0x35ab6bc0	1.2771852e-06
4	0x3542a241	7.250674e-07
5	0x365c0172	3.2783396e-06
6	0x35a0ead8	1.1989277e-06
7	0x360d523b	2.1058502e-06
8	0x356dbfda	8.856856e-07
9	0x35607603	8.361823e-07
10	0x35f012e3	1.788689e-06
11	0x35428aa0	7.247236e-07
12	0x355c9f15	8.218788e-07
13	0x359f5b8f	1.187307e-06
14	0x35e17974	1.6799154e-06
15	0x35803c78	9.554342e-07
16	0x35ffc5da	1.9056563e-06
17	0x360a938b	2.0649484e-06
18	0x36ba1749	5.5459427e-06
19	0x364cd1fc	3.0520596e-06
20	0x36020231	1.9372785e-06
21	0x35ebf97b	1.7581473e-06
22	0x36a4864b	4.9032146e-06
23	0x35df8252	1.6652723e-06
24	0x359eef57	1.1841574e-06
25	0x35339e60	6.691316e-07
26	0x3671b1f0	3.6015372e-06
27	0x358849e2	1.0154292e-06
28	0x35e5fb2e	1.7134932e-06
29	0x3580c173	9.593044e-07
30	0x362efd6e	2.6075536e-06
31	0x35b361ae	1.3364968e-06

exp_avg f4 [1, 8, 1]
0	0x3a43375c	0.0007446909
1	0x3ab3ce99	0.0013718187
2	0xb6818299	-3.859703e-06
3	0xb69c1e6c	-4.652704e-06
4	0x38c07e48	9.178795e-05
5	0x3902dfc0	0.0001248112
6	0x37ffe233	3.0503701e-05
7	0xba126d22	-0.000558572

exp_avg_sq f4 [1, 8, 1]
0	0x371e91a4	9.4514435e-06
1	0x379c5cab	1.8639801e-05
2	0x33b4c3ff	8.417555e-08
3	0x351b2165	5.7790595e-07
4	0x353a01d6	6.929307e-07
5	0x3781a09f	1.5452793e-05
6	0x33dee751	1.0379757e-07
7	0x37c16db1	2.3058472e-05

exp_avg f4 [4, 4, 1]
0	0x37948fb4	1.7709892e-05
1	0xba13364a	-0.00056156947
2	0xb8f33246	-0.00011596507
3	0xba11c246	-0.000556026
4	0x3a74bf8a	0.0009336403
5	0x3aa61184	0.0012670015
6	0x3a562b67	0.00081699196
7	0xba8a5d2b	-0.0010556331
8	0xb7a57c2d	-1.9727357e-05
9	0xb7e27f53	-2.700059e-05
10	0xb77888b7	-1.4813783e-05
11	0x38bd9a18	9.0409245e-05
12	0x398cf3d6	0.00026884553
13	0xb72f2973	-1.04404635e-05
14	0x39ef0ae4	0.00045593746
15	0x39be64d9	0.0003631476

exp_avg_sq f4 [4, 4, 1]
0	0x366316da	3.3838937e-06
1	0x3678b996	3.7062905e-06
2	0x36825590	3.8842627e-06
3	0x361d893d	2.3474706e-06
4	0x3755e2d8	1.27486055e-05
5	0x37917a09	1.7342174e-05
6	0x37968ddb	1.794745e-05
7	0x38196295	3.6569854e-05
8	0x339aae18	7.202851e-08
9	0x33c81b0d	9.318146e-08
10	0x33aee322	8.1438216e-08
11	0x346f32c3	2.2277077e-07
12	0x37085032	8.124904e-06
13	0x370b818d	8.315209e-06
14	0x371c6387	9.321498e-06
15	0x370c2890	8.3540945e-06

exp_avg f4 [1, 8, 1]
0	0xba8979d7	-0.0010488582
1	0xba257595	-0.00063117716
2	0x398b85a6	0.00026611722
3	0xba0c7eff	-0.00053595
4	0xb921fdd4	-0.00015448715
5	0xb6de30cc	-6.6217963e-06
6	0xba036ce7	-0.0005013481
7	0x3a012f45	0.0004928003

exp_avg_sq f4 [1, 8, 1]
0	0x3783e929	1.572499e-05
1	0x372c2c76	1.0262351e-05
2	0x361ab1ed	2.3051355e-06
3	0x364128d4	2.8783006e-06
4	0x35e64a02	1.7157874e-06
5	0x352de35d	6.477838e-07
6	0x36a3175a	4.860497e-06
7	0x36da1ca4	6.5002405e-06

exp_avg f4 [4, 8, 1]
0	0xb81d77ee	-3.754341e-05
1	0x39479c06	0.00019036242
2	0x39d0bf9a	0.00039815606
3	0x391fe436	0.00015248437
4	0x3a13928e	0.00056294433
5	0x38a34cca	7.786749e-05
6	0x39a11551	0.00030724195
7	0x37e7517c	2.757529e-05
8	0xb9f0a903	-0.0004590229
9	0xb986a4e9	-0.0002568134
10	0x3619fe6a	2.2946865e-06
11	0xb9cb00f9	-0.00038719902
12	0x393760c8	0.00017488294
13	0x392994d9	0.00016172546
14	0x39ba8a5b	0.00035579767
15	0x3a5a6acc	0.0008331954
16	0x391a77b3	0.00014731176
17	0x3a038241	0.0005016663
18	0x39aec225	0.00033332515
19	0x38d9e45a	0.000103899
20	0x395163af	0.00019968928
21	0xb96961f8	-0.00022257108
22	0xb9a8c8ee	-0.0003219316
23	0xba0d171f	-0.00053821685
24	0xb9247c66	-0.00015686601
25	0xba1d34ea	-0.00059969595
26	0xb97bb4c1	-0.00024004561
27	0x363ba046	2.7958463e-06
28	0xb788adc4	-1.629338e-05
29	0x399c2286	0.0002978036
30	0x3a021cf2	0.00049634196
31	0x3a414911	0.00073732535

exp_avg_sq f4 [4, 8, 1]
0	0x366e59dd	3.551707e-06
1	0x3733e2d9	1.07220485e-05
2	0x373cc3cb	1.125126e-05
3	0x3682b96e	3.8958888e-06
4	0x3723aa39	9.75519e-06
5	0x36156fcb	2.2267802e-06
6	0x3639fd7e	2.77147e-06
7	0x37085c76	8.127759e-06
8	0x373742f8	1.0923242e-05
9	0x369dae8c	4.6992845e-06
10	0x368af38d	4.1410735e-06
11	0x367b49b5	3.7444818e-06
12	0x3683c052	3.9264933e-06
13	0x365a0c0a	3.249154e-06
14	0x36936aa1	4.3933546e-06
15	0x3798a454	1.8196333e-05
16	0x364753f2	2.9702173e-06
17	0x36694fbd	3.476612e-06
18	0x3636fe90	2.7268288e-06
19	0x35be3a7e	1.4173127e-06
20	0x36350466	2.6973662e-06
21	0x35c49158	1.4645439e-06
22	0x35f57da8	1.8290493e-06
23	0x367ba987	3.7500592e-06
24	0x3688a5a3	4.0723985e-06
25	0x369a1551	4.592039e-06
26	0x369386c3	4.3966297e-06
27	0x3612547d	2.1804874e-06
28	0x3695a468	4.4596854e-06
29	0x361254c2	2.180503e-06
30	0x36662ddb	3.4299362e-06
31	0x364ed2a6	3.0819006e-06

exp_avg f4 [1, 8, 1]
0	0x3a1ac7a8	0.0005904385
1	0x396ded14	0.000226904
2	0x39327734	0.0001701981
3	0x389f9bdf	7.610744e-05
4	0xb991d864	-0.0002781778
5	0xb9c7c3d4	-0.0003810214
6	0x3b67da24	0.0035377825
7	0xbaaca0f8	-0.0013170531

exp_avg_sq f4 [1, 8, 1]
0	0x370d799a	8.4325675e-06
1	0x37cca2e3	2.4394545e-05
2	0x375037ff	1.2410804e-05
3	0x35f6af44	1.8379437e-06
4	0x3687a72b	4.0427744e-06
5	0x3672a636	3.6157558e-06
6	0x395d3883	0.00021097255
7	0x37d97f62	2.5927733e-05

exp_avg f4 [4, 3, 1]
0	0x3a0d385a	0.000538712
1	0x39d8eef1	0.00041376756
2	0xba621832	-0.0008624821
3	0x3acf00ee	0.0015793124
4	0xb875cd8d	-5.8603986e-05
5	0x3b12b656	0.0022386513
6	0xba55aa69	-0.0008150698
7	0x39833498	0.00025025452
8	0x3b0ee7ce	0.0021805647
9	0xb8a8046f	-8.01169e-05
10	0x3a4cb17a	0.00078084285
11	0xbadf4936	-0.0017035368

exp_avg_sq f4 [4, 3, 1]
0	0x37a57cee	1.9727708e-05
1	0x376f1fc8	1.425291e-05
2	0x36ee905a	7.1097575e-06
3	0x379e3a04	1.8862083e-05
4	0x37cadd2d	2.418327e-05
5	0x383f1367	4.555602e-05
6	0x391ed4d2	0.00015147336
7	0x37799e32	1.4878389e-05
8	0x386ee98a	5.6961122e-05
9	0x37c21045	2.3134178e-05
10	0x371d00c2	9.358106e-06
11	0x38bca426	8.9951136e-05

exp_avg f4 [1, 8, 1]
0	0x3a0c6994	0.00053563085
1	0xbb10972b	-0.002206276
2	0xb9da4678	-0.00041632704
3	0xbb20a24b	-0.0024510797
4	0xb8fa0830	-0.00011922454
5	0xb9170a92	-0.0001440442
6	0xb78fff40	-1.7165788e-05
7	0xb9cc971e	-0.00039022503

exp_avg_sq f4 [1, 8, 1]
0	0x36b54544	5.402284e-06
1	0x38de6650	0.00010604842
2	0x3621e8be	2.4126343e-06
3	0x38c9530f	9.599898e-05
4	0x35591ccb	8.08807e-07
5	0x34d483e5	3.9584043e-07
6	0x32a694c0	1.9392587e-08
7	0x3649993d	3.004053e-06

exp_avg f4 [4, 8, 1]
0	0xb984fbc4	-0.00025364582
1	0xb901b45c	-0.00012369588
2	0x39a1b15a	0.0003084045
3	0xb6d274d8	-6.27209e-06
4	0x39db7c61	0.00041863605
5	0x39c4af37	0.00037514578
6	0xb905eb93	-0.00012771627
7	0x39627e52	0.00021600098
8	0x3ac8ff83	0.0015334937
9	0x3a868cec	0.0010265387
10	0x3aae736e	0.0013309547
11	0x3a89bdf0	0.0010508876
12	0xbb09f566	-0.002105081
13	0xbb250bb9	-0.002518399
14	0x3a49c9d5	0.0007697617
15	0xbb38c8e4	-0.0028195912
16	0xba0cf779	-0.00053774525
17	0xb9c3227b	-0.00037218988
18	0x3a088200	0.000520736
19	0x389cdc4b	7.4796924e-05
20	0x39f3ddec	0.00046513916
21	0x39c6a979	0.0003789177
22	0xb944b0ea	-0.00018757922
23	0x38295310	4.0370098e-05
24	0x3a667b9a	0.0008792222
25	0x3a7154cf	0.0009206058
26	0x3ad366ef	0.0016128699
27	0x39e8e7fb	0.00044423327
28	0xba3c1a68	-0.00071755657
29	0xba9a5980	-0.0011775941
30	0x3a5fd3db	0.0008538344
31	0xbb1d6702	-0.0024017696
