nTupleAnalysis/pytorchModels/FvT_HCR+attention_8_np1052_seed0_lr0.01_epochs20_offset1_epoch20_before_finetuning.pkl (torch, 456452 bytes, 230 tensors)

inputEmbed.ancillaryEmbed.m f4 [1, 1, 1, 4]
7.0061235 0.5782344 3.0061438 1.0028539
00000000: 2a32 e040 2b07 143f a964 4040 845d 803f

inputEmbed.ancillaryEmbed.s f4 [1, 1, 1, 4]
0.85606086 0.5023614 3.1266816 3.3132055
00000000: ce26 5b3f c29a 003f 8d1b 4840 8f0b 5440

inputEmbed.ancillaryEmbed.conv.module.weight f4 [4, 4, 1]
0.06625915 -0.12458333 -0.51709396 -1.1082795 -0.081182666 0.027871631 -0.12685615 -0.06154619
-2.048992 -0.05109526 0.030341076 -0.017330693 -0.12411454 -0.39881223 -0.023308704 0.13208659
00000000: e1b2 873d 8b25 ffbd 4560 04bf 1adc 8dbf
00000010: 1943 a6bd 0c53 e43c 94e6 01be dc17 7cbd
00000020: af22 03c0 4349 51bd d98d f83c 19f9 8dbc
00000030: c42f febd 1e31 ccbe e5f1 bebc b541 073e

inputEmbed.jetEmbed.m f4 [1, 1, 1, 4]
4.4930463 0.49800158 0.92425585 2.6457214
00000000: 09c7 8f40 10fa fe3e 089c 6c3f 8053 2940

inputEmbed.jetEmbed.s f4 [1, 1, 1, 4]
0.44125924 0.9055818 0.7767481 0.36562747
00000000: bbec e13e 35d4 673f f7d8 463f 8633 bb3e

inputEmbed.jetEmbed.conv.bias f4 [1, 8, 1]
0.7974126 0.5599191 -0.31964627 0.52821547 -0.19759268 -0.56177956 -0.58421683 0.010348558
00000000: 3b23 4c3f dc56 0f3f ada8 a3be 2139 073f
00000010: bc55 4abe c9d0 0fbf 3c8f 15bf 008d 293c

inputEmbed.jetEmbed.conv.module.weight f4 [4, 4, 1]
3.2077389 -0.2633348 -0.6139535 -0.3245014 -1.4456465 -0.114406645 -0.033599254 3.279069
0.020251429 0.01671306 -0.010066533 0.015908789 -2.0271447 0.08148043 -0.06227947 1.2271429
00000000: 984b 4d40 d2d3 86be 0e2c 1dbf 0c25 a6be
00000010: f20a b9bf 084e eabd 5f9f 09bd 44dc 5140
00000020: 53e6 a53c d4e9 883c 1aee 24bc 2653 823c
00000030: bdbc 01c0 36df a63d c218 7fbd 0513 9d3f

inputEmbed.jetConv.m f4 [1, 1, 1, 8]
1.5627893 0.932272 0.6040795 0.6178438 1.0190005 0.41252992 0.46614423 0.32265893
00000000: 7b09 c83f 61a9 6e3f f4a4 1a3f 032b 1e3f
00000010: 9c6e 823f 1f37 d33e 75aa ee3e 8d33 a53e

inputEmbed.jetConv.s f4 [1, 1, 1, 8]
2.2638576 1.6567768 0.9962244 0.83194196 1.6142262 1.0374037 0.8375237 0.8313565
00000000: 0be3 1040 4311 d43f 9008 7f3f 26fa 543f
00000010: f79e ce3f a5c9 843f f467 563f c8d3 543f

inputEmbed.jetConv.conv.bias f4 [1, 8, 1]
0.6328667 0.5223323 0.11444169 0.86550754 -0.4087598 -0.9388335 2.7465732 -1.4922229
00000000: 8d03 223f 92b7 053f 6860 ea3d e791 5d3f
00000010: f748 d1be 6457 70bf dbc7 2f40 2901 bfbf

inputEmbed.jetConv.conv.module.weight f4 [4, 8, 1]
-0.07523972 -0.23489358 -0.9294321 -1.437768 0.22807795 1.0261508 -0.47484395 0.25961405
-0.84068364 0.19124125 -0.33741832 -1.0355722 -0.008017266 -1.3734813 -0.113761514 1.5183587
-0.9303871 1.6634669 0.32262605 -0.34517097 1.0351211 -0.41263992 0.32401407 -0.17203248
-0.19861805 -1.5692868 -0.19066916 -0.7563769 0.33569807 -0.50433373 -0.3856079 0.14369118
00000000: 4817 9abd f187 70be 43ef 6dbf c808 b8bf
00000010: 448d 693e e958 833f bf1e f3be 22ec 843e
00000020: 0b37 57bf bfd4 433e 18c2 acbe a18d 84bf
00000030: da5a 03bc 3cce afbf ccfb e8bd 9459 c23f
00000040: d92d 6ebf 7cec d43f 3e2f a53e 40ba b0be
00000050: d97e 843f 8a45 d3be 2ce5 a53e 4829 30be
00000060: 8862 4bbe 64de c8bf c73e 43be eba1 41bf
00000070: 9ee0 ab3e 041c 01bf 666e c5be c823 133e

inputEmbed.othJetEmbed.m f4 [1, 1, 1, 4]
4.2996683 0.39674282 2.5098875 1.451692
00000000: e296 8940 e021 cb3e ffa1 2040 0bd1 b93f

inputEmbed.othJetEmbed.s f4 [1, 1, 1, 4]
0.59342027 1.1283573 0.45156428 0.7944842
00000000: 64ea 173f 036e 903f 6f33 e73e 5163 4b3f

inputEmbed.othJetEmbed.conv.bias f4 [1, 8, 1]
-0.008897223 0.9118721 2.9805071 0.14205123 0.929912 0.45894057 1.4560902 0.62931484
00000000: a8c5 11bc 7370 693f a1c0 3e40 e175 113e
00000010: b60e 6e3f 42fa ea3e 2a61 ba3f c71a 213f

inputEmbed.othJetEmbed.conv.module.weight f4 [4, 4, 1]
-0.073624544 0.025868624 -0.35699564 -0.37006804 1.8386291 -0.0036221682 -0.8834592 -0.9210665
4.3046927 0.33492675 8.795306 1.5242363 -1.5253254 0.17690629 -0.21883865 -4.9749813
00000000: 77c8 96bd 70ea d33c 22c8 b6be 8f79 bdbe
00000010: 3358 eb3f e661 6dbb 622a 62bf 04cb 6bbf
00000020: 0bc0 8940 857b ab3e 93b9 0c41 2d1a c33f
00000030: dd3d c3bf ec26 353e 3d17 60be 0c33 9fc0

inputEmbed.othJetConv.m f4 [1, 1, 1, 8]
0.33397982 0.79709804 6.350072 2.3304625 0.857847 0.4434282 5.6791105 2.7820613
00000000: 67ff aa3e 9e0e 4c3f ca33 cb40 4c26 1540
00000010: dc9b 5b3f 0509 e33e 46bb b540 4b0d 3240

inputEmbed.othJetConv.s f4 [1, 1, 1, 8]
0.71417785 0.8997183 8.167265 4.329197 1.0727756 0.6164192 8.199743 2.347235
00000000: 5cd4 363f f053 663f 1ead 0241 c888 8a40
00000010: b650 893f a6cd 1d3f 2632 0341 1939 1640

inputEmbed.othJetConv.conv.bias f4 [1, 8, 1]
-0.17314756 3.9514034 2.5732665 -0.9938649 4.451576 3.8248658 -0.25903875 1.4691026
00000000: 984d 31be cbe3 7c40 66b0 2440 ee6d 7ebf
00000010: 5073 8e40 9aca 7440 baa0 84be 8e0b bc3f

inputEmbed.othJetConv.conv.module.weight f4 [4, 8, 1]
-0.21319728 0.52249175 -0.6656083 0.6450868 -0.100457534 -0.39271978 0.85421365 0.15477993
0.35473847 -1.0893756 -0.7194909 0.6066966 0.0020422908 0.23894414 0.16577624 -0.41002774
-0.04533449 -0.7405344 1.108396 1.1056706 0.24442202 0.9843969 -0.6370842 2.2960126
-1.6829373 0.16627769 -0.5002439 -1.541331 0.1949961 -0.18946323 0.31533304 -0.40370622
00000000: 6350 5abe 05c2 053f 4e65 2abf 6924 253f
00000010: aebc cdbd 9112 c9be bfad 5a3f a17e 1e3e
00000020: 48a0 b53e a970 8bbf 8e30 38bf 7850 1b3f
00000030: f4d7 053b c6ad 743e 3fc1 293e 28ef d1be
00000040: a8b0 39bd aa93 3dbf ecdf 8d3f 9d86 8d3f
00000050: c449 7a3e 6f01 7c3f f317 23bf dff1 1240
00000060: 7d6a d7bf b344 2a3e fc0f 00bf 564a c5bf
00000070: 0fad 473e a602 42be 5573 a13e 95b2 cebe

inputEmbed.MdPhi_embed.m f4 [1, 1, 1, 3]
5.2514443 1.7930735 0.42052558
00000000: d50b a840 6f83 e53f 214f d73e

inputEmbed.MdPhi_embed.s f4 [1, 1, 1, 3]
0.686069 0.91787165 0.4936434
00000000: 38a2 2f3f a3f9 6a3f d4be fc3e

inputEmbed.MdPhi_embed.conv.bias f4 [1, 8, 1]
1.1244547 -0.27584338 0.43803978 0.71181136 1.1879383 2.1135414 1.6406411 1.217145
00000000: 22ee 8f3f 583b 8dbe c046 e03e 4539 363f
00000010: 5d0e 983f 4344 0740 8700 d23f 68cb 9b3f

inputEmbed.MdPhi_embed.conv.module.weight f4 [4, 3, 1]
0.20655903 1.9271187 -0.09333425 -3.7782505 0.1657959 1.9675676 -0.06797676 -0.083125725
3.03818 -1.2838131 -0.48699832 1.5875866
00000000: 3684 533e d3ab f63f 0726 bfbd dbce 71c0
00000010: 67c6 293e 41d9 fb3f 6637 8bbd d23d aabd
00000020: 8b71 4240 fd53 a4bf d857 f9be 0a36 cb3f

inputEmbed.MdPhi_conv.m f4 [1, 1, 1, 8]
1.3673115 0.8929407 1.5274395 0.86134267 1.3808292 2.245776 2.3807652 1.1951932
00000000: 1004 af3f c397 643f 2383 c33f f480 5c3f
00000010: 03bf b03f cbba 0f40 755e 1840 17fc 983f

inputEmbed.MdPhi_conv.s f4 [1, 1, 1, 8]
1.4698085 1.6308875 2.0582538 1.0583938 1.713975 2.494474 2.2468917 1.3392606
00000000: af22 bc3f ecc0 d03f 6eba 0340 7379 873f
00000010: 8863 db3f 76a5 1f40 13cd 0f40 e46c ab3f

inputEmbed.MdPhi_conv.conv.bias f4 [1, 8, 1]
4.5658665 1.3841152 3.6411614 1.0954317 2.0532115 -1.5256072 1.7942077 1.5819104
00000000: 941b 9240 b02a b13f ca08 6940 1b37 8c3f
00000010: d167 0340 1947 c3bf 99a8 e53f 0a7c ca3f

inputEmbed.MdPhi_conv.conv.module.weight f4 [4, 8, 1]
0.04693185 -1.1044617 -0.10887266 -0.6829445 -0.46935132 -0.9421101 -0.14487706 0.1458576
-0.15721436 -1.0532879 0.89084554 -0.020616919 -0.5586701 4.6223598 -1.080614 1.2382976
2.1835573 0.5359397 1.5651765 0.2778237 -0.6681349 -0.52272475 -0.5012546 0.41143003
0.3518079 -3.5457137 -1.3479949 -1.9567817 0.24303186 -0.4608982 0.8893707 0.08480282
00000000: 9d3b 403d 005f 8dbf a1f8 debd 73d5 2ebf
00000010: d14e f0be 212e 71bf a75a 14be b25b 153e
00000020: cdfc 20be 23d2 86bf 740e 643f d0e4 a8bc
00000030: 0105 0fbf 5fea 9340 8f51 8abf 8980 9e3f
00000040: 67bf 0b40 5833 093f b457 c83f e83e 8e3e
00000050: e40a 2bbf 4ad1 05bf 3952 00bf f5a6 d23e
00000060: 2a20 b43e f9ec 62c0 198b acbf d377 fabf
00000070: 58dd 783e d9fa ebbe ccad 633f 1aad ad3d

inputEmbed.dijetEmbed.m f4 [1, 1, 1, 4]
4.5466723 0.86288375 0.95830715 5.0430517
00000000: 577e 9140 f3e5 5c3f 9e53 753f ae60 a140

inputEmbed.dijetEmbed.s f4 [1, 1, 1, 4]
0.72113156 1.2707567 1.1822248 0.52177596
00000000: 149c 383f 28a8 a23f 2453 973f 1c93 053f

inputEmbed.dijetEmbed.conv.bias f4 [1, 8, 1]
0.09125591 0.7403116 1.3338077 0.2672874 0.8062353 -2.41376 0.8769245 0.90793765
00000000: 61e4 ba3d 1085 3d3f 36ba aa3f e5d9 883e
00000010: 7065 4e3f 0b7b 1ac0 207e 603f 9a6e 683f

inputEmbed.dijetEmbed.conv.module.weight f4 [4, 4, 1]
0.42395627 0.0368605 -0.36548945 -2.1796691 0.37352547 -0.07268399 0.16006985 -1.8925483
-0.051859464 0.15009429 -0.22746558 2.117701 -2.9294 -0.15412554 -0.16860431 0.6955742
00000000: cc10 d93e 09fb 163d 6f21 bbbe b37f 0bc0
00000010: bb3e bf3e 58db 94bd 5ae9 233e 063f f2bf
00000020: 976a 54bd 51b2 193e bdec 68be 6a88 0740
00000030: 4a7b 3bc0 16d3 1dbe 9ca6 2cbe 2711 323f

inputEmbed.quadjetEmbed.m f4 [1, 1, 1, 3]
4.3325844 1.4343684 6.102711
00000000: 88a4 8a40 6299 b73f 6949 c340

inputEmbed.quadjetEmbed.s f4 [1, 1, 1, 3]
0.79685867 1.7571325 0.32988015
00000000: eefe 4b3f b8e9 e03f 0de6 a83e

inputEmbed.quadjetEmbed.conv.bias f4 [1, 8, 1]
-0.97000057 -0.9170395 -0.6224963 0.14362982 0.70606357 0.121969685 0.32086763 -2.640288
00000000: f551 78bf 1ac3 6abf eb5b 1fbf b213 133e
00000010: 95c0 343f 3ecb f93d c348 a43e 7bfa 28c0

inputEmbed.quadjetEmbed.conv.module.weight f4 [4, 3, 1]
0.7184494 1.8641856 -0.3538263 1.0434519 0.14257616 -0.32086974 1.0329123 0.014999479
0.99157697 -0.30559462 1.3723481 0.44659364
00000000: 4dec 373f a29d ee3f b928 b5be d58f 853f
00000010: 7cff 113e 0a49 a4be 7836 843f 60c0 753c
00000020: fdd7 7d3f e676 9cbe 1aa9 af3f eca7 e43e

inputEmbed.dijetConv.m f4 [1, 1, 1, 8]
0.835492 1.1322827 1.3722204 1.270694 1.1890316 0.0150453355 1.1993738 1.7805269
00000000: cee2 553f a4ee 903f eba4 af3f 1aa6 a23f
00000010: 3032 983f b680 763c 1585 993f 4ee8 e33f

inputEmbed.dijetConv.s f4 [1, 1, 1, 8]
1.3989987 1.5159527 1.6823329 2.2822218 1.6680167 0.5509619 1.5011561 2.07663
00000000: 6412 b33f bd0a c23f af56 d73f ec0f 1240
00000010: 9281 d53f d70b 0d3f e225 c03f 82e7 0440

inputEmbed.dijetConv.conv.bias f4 [1, 8, 1]
-0.25211766 0.33200002 -1.6069564 -0.10139038 -0.93300503 0.4251833 -0.8814729 -0.9722577
00000000: 9115 81be e8fb a93e bfb0 cdbf c2a5 cfbd
00000010: 6bd9 6ebf a0b1 d93e 35a8 61bf e1e5 78bf

inputEmbed.dijetConv.conv.module.weight f4 [4, 8, 1]
1.1285119 0.9179017 0.027050907 -0.31994316 -0.90162337 0.3827106 1.2253163 0.4808435
-0.8816951 -0.8652949 0.6655105 -0.7207606 0.26193187 0.3872257 -0.96534103 0.19065277
1.1092253 0.9821856 -1.1223801 0.5485687 -1.2682089 0.45171288 0.91517425 0.9991924
0.82958186 0.5288012 -0.7289044 0.44760647 -0.22011892 -0.12364382 0.53898436 -0.6580268
00000000: 1473 903f 9bfb 6a3f dd99 dd3c 97cf a3be
00000010: cad0 66bf a5f2 c33e 2ad7 9c3f 1f31 f63e
00000020: c5b6 61bf f783 5dbf e55e 2a3f c483 38bf
00000030: ef1b 863e 7242 c63e 9720 77bf 7b3a 433e
00000040: 18fb 8d3f 8470 7b3f 27aa 8fbf 006f 0c3f
00000050: ab54 a2bf e946 e73e dc48 6a3f 13cb 7f3f
00000060: 7a5f 543f 845f 073f 7b99 3abf ad2c e53e
00000070: db66 61be f938 fdbd e1fa 093f 7274 28bf

inputEmbed.quadjetConv.m f4 [1, 1, 1, 8]
0.05763291 -0.03459862 0.07348902 0.52224797 0.9248294 0.314581 0.47469306 -0.12976298
00000000: 7c10 6c3d 48b7 0dbd 6981 963d 0bb2 053f
00000010: 9fc1 6c3f c310 a13e f80a f33e 96e0 04be

inputEmbed.quadjetConv.s f4 [1, 1, 1, 8]
0.35150376 0.34646147 0.5868677 0.9866156 1.7589353 0.7583858 0.83386236 0.16001743
00000000: 4df8 b33e 6663 b13e f63c 163f d792 7c3f
00000010: cb24 e13f 9225 423f 0178 553f 9cdb 233e

inputEmbed.quadjetConv.conv.bias f4 [1, 8, 1]
0.55247784 -0.031871993 0.74217814 0.4406335 -0.5635849 0.10002415 -0.62504166 -0.25040668
00000000: 306f 0d3f 358c 02bd 63ff 3d3f b79a e13e
00000010: 1a47 10bf 76d9 cc3d bb02 20bf 4e35 80be

inputEmbed.quadjetConv.conv.module.weight f4 [4, 8, 1]
-0.49105808 0.40426865 -0.54355145 -0.78015316 -0.57516617 0.045336526 0.9380242 -0.23450002
-0.6139432 0.19529714 -0.23478897 0.049353223 -0.06667566 0.32362428 0.3858826 -0.17178427
-0.8816022 0.0034804074 -0.022710457 0.31335062 0.019297875 0.5914912 -0.046734378 -0.32197556
-0.33033496 -0.25821406 -0.57617843 -0.39619008 0.051311646 -0.9974026 0.64298326 -0.10582104
00000000: f76b fbbe 4dfc ce3e 3026 0bbf 1eb8 47bf
00000010: 173e 13bf cbb2 393d 5b22 703f c620 70be
00000020: 622b 1dbf f9fb 473e 856c 70be 9b26 4a3d
00000030: 408d 88bd 15b2 a53e 6792 c53e 37e8 2fbe
00000040: afb0 61bf 8c17 643b 480b babc 7e6f a03e
00000050: 9416 9e3c f86b 173f 8c6c 3fbd fbd9 a4be
00000060: aa21 a9be a234 84be 6e80 13bf 6dd9 cabe
00000070: 292c 523d c755 7fbf 8d9a 243f b4b8 d8bd

dijetResNetBlock.reinforce.0.conv.m f4 [1, 1, 3, 8]
1.1626722 1.3729838 0.52531403 0.9317973 0.26341692 -0.020762082 3.1711442 0.29316214
0.9073516 0.4207799 0.83368444 1.1574011 0.65001583 0.5558482 2.188579 -0.09210347
1.7275037 1.2228303 1.4707024 0.68097997 1.3035411 1.2790276 1.5208905 0.2000661
00000000: 71d2 943f efbd af3f fb7a 063f 458a 6e3f
00000010: 95de 863e 3e15 aabc 07f4 4a40 5919 963e
00000020: 3248 683f 7770 d73e 586c 553f b825 943f
00000030: 7067 263f 114c 0e3f ae11 0c40 bea0 bcbd
00000040: d71e dd3f b485 9c3f fa3f bc3f b454 2e3f
00000050: 6fda a63f 2db7 a33f 8aac c23f 21de 4c3e

dijetResNetBlock.reinforce.0.conv.s f4 [1, 1, 3, 8]
1.4832023 1.4983115 1.215848 0.93832475 0.9230025 0.48012945 2.0249305 1.2226804
1.5564048 1.0660636 1.1476805 0.80276 1.2366219 1.0905241 1.5807188 0.52107155
3.0371206 1.7010326 2.7735755 1.3711802 1.6441576 2.1434891 2.0204287 0.68569887
00000000: 93d9 bd3f acc8 bf3f e8a0 9b3f 0d36 703f
00000010: e449 6c3f 87d3 f53e 7698 0140 cb80 9c3f
00000020: 4638 c73f c674 883f 32e7 923f ae81 4d3f
00000030: a049 9e3f 4b96 8b3f fe54 ca3f f264 053f
00000040: 2f60 4240 70bb d93f 4382 3140 d582 af3f
00000050: c273 d23f ed2e 0940 b44e 0140 f689 2f3f

dijetResNetBlock.reinforce.0.conv.conv.bias f4 [1, 8, 1]
-0.92312443 -1.151155 0.23063983 0.48396266 -2.942713 0.31533924 -0.107459106 0.68706757
00000000: e251 6cbf 0c59 93bf d92c 6c3e f4c9 f73e
00000010: 6955 3cc0 2574 a13e 8513 dcbd a9e3 2f3f

dijetResNetBlock.reinforce.0.conv.conv.module.weight f4 [4, 8, 3]
0.20691447 0.45379326 -0.55586755 0.431435 0.759775 -0.03443986 1.3450016 1.3458245
-0.7978323 0.5023471 0.70888394 0.72263044 -0.6507871 -0.7936793 0.26553294 -0.026689982
0.08627237 -0.22358115 -0.8530579 -0.91429275 -1.2986984 -0.0013960946 0.6822999 -0.6566599
0.28510156 0.2906836 1.3420624 -0.3948627 -0.23921056 -1.1548369 0.010760167 0.38924628
1.5342172 -0.21310194 -0.20410015 -0.38103473 -0.4628628 0.008017013 0.5022184 -0.03382581
-0.25322476 0.23148642 -0.4835267 -0.11688044 1.61922 0.7190147 -0.031382356 -1.6099265
0.8738015 -0.40618977 0.20672943 -0.48631427 1.0761452 -1.2214568 -0.25631103 0.14886239
0.28364563 0.9102242 1.448859 1.2835419 -0.37089258 -0.9667123 0.54200476 0.33482435
-0.97457045 0.5361591 0.7784483 0.021578472 0.106929146 1.0637118 -0.53775775 -1.0162119
0.07533084 -0.67538667 -0.8480762 0.73422915 0.65383273 1.5920051 -0.6235336 0.8794422
-0.09669965 -0.8277095 -1.0876334 0.47461015 0.4809949 0.29878065 -0.48450872 0.002595354
0.44936106 0.14140677 -0.84651357 -0.39036277 -0.46728757 -0.7792725 -0.73571515 -0.56076074
00000000: 63e1 533e 9757 e83e 564d 0ebf 0ce5 dc3e
00000010: 9d80 423f d010 0dbd 0329 ac3f fa43 ac3f
00000020: bd3e 4cbf d299 003f 6b79 353f 4ffe 383f
00000030: fc99 26bf 912e 4bbf eff3 873e f3a4 dabc
00000040: 91af b03d 75f2 64be 0162 5abf 170f 6abf
00000050: c03b a6bf 29fd b6ba 35ab 2e3f dd1a 28bf
00000060: d5f8 913e 7bd4 943e b3c8 ab3f 722b cabe
00000070: 9df3 74be b2d1 93bf 694b 303c 4a4b c73e
00000080: 3b61 c43f 6537 5abe a1ff 50be fc16 c3be
00000090: 5afc ecbe ca59 033c 6391 003f ef8c 0abd
000000a0: ada6 81be c70a 6d3e d090 f7be 035f efbd
000000b0: 9a42 cf3f 5911 383f c98a 00bd 1212 cebf
000000c0: 75b1 5f3f 1bf8 cfbe e1b0 533e 2ffe f8be
000000d0: 20bf 893f b258 9cbf 333b 83be 626f 183e
000000e0: 003a 913e 7404 693f 3674 b93f 1a4b a43f
000000f0: a2e5 bdbe 757a 77bf d3c0 0a3f 196e ab3e
00000100: 737d 79bf b941 093f 6348 473f 56c5 b03c
00000110: abfd da3d b527 883f 7eaa 09bf 3b13 82bf
00000120: 0e47 9a3d 24e6 2cbf 861b 59bf 71f6 3b3f
00000130: 9561 273f d3c6 cb3f e69f 1fbf 2023 613f
00000140: 770a c6bd c5e4 53bf 9237 8bbf 1a00 f33e
00000150: f744 f63e c7f9 983e 8711 f8be d116 2a3b
00000160: a712 e63e f0cc 103e 1db5 58bf a1dd c7be
00000170: 5140 efbe 677e 47bf d457 3cbf 048e 0fbf

dijetResNetBlock.reinforce.1.conv.m f4 [1, 1, 3, 8]
3.08911 1.9815205 1.3348719 -0.076907426 1.1035025 0.11602404 4.502094 -0.101013064
2.3973582 0.7458998 2.0221207 0.25700223 1.2025276 0.8353408 3.582072 -0.059958246
1.6248496 0.47238594 2.7817202 1.5642244 0.4919224 1.252942 2.6631887 1.1323876
00000000: fab3 4540 77a2 fd3f 15dd aa3f a481 9dbd
00000010: 923f 8d3f 039e ed3d 2711 9040 f0df cebd
00000020: 516e 1940 4af3 3e3f 6d6a 0140 cc95 833e
00000030: 6dec 993f e5d8 553f ab40 6540 c796 75bd
00000040: 12fb cf3f 92dc f13e b407 3240 8138 c83f
00000050: 41dd fb3e 6760 a03f af71 2a40 14f2 903f

dijetResNetBlock.reinforce.1.conv.s f4 [1, 1, 3, 8]
2.264345 2.08207 1.6413976 0.4186171 2.5008476 0.74390596 2.3554254 0.3882002
2.1608894 1.5243466 1.7967373 0.8255884 1.990402 1.6195852 2.2708173 0.3685266
2.6537876 1.2139747 4.983336 2.3528743 1.2427707 1.5641024 3.8410058 1.9403794
00000000: 07eb 1040 a340 0540 5119 d23f fb54 d63e
00000010: e30d 2040 9f70 3e3f 4abf 1640 2dc2 c63e
00000020: 034c 0a40 ca1d c33f 7dfb e53f c359 533f
00000030: 7ec5 fe3f 914e cf3f 1255 1140 85af bc3e
00000040: a8d7 2940 8663 9b3f 7d77 9f40 7e95 1640
00000050: 1c13 9f3f 8234 c83f 0ad3 7540 5a5e f83f

dijetResNetBlock.reinforce.1.conv.conv.bias f4 [1, 8, 1]
0.54488075 1.4494488 -1.6024537 -0.11417235 0.040567387 0.18386044 -0.38496912 0.24881822
00000000: 4e7d 0b3f 8a87 b93f 341d cdbf 31d3 e9bd
00000010: fd29 263d e945 3c3e ac1a c5be 34ca 7e3e

dijetResNetBlock.reinforce.1.conv.conv.module.weight f4 [4, 8, 3]
1.5119524 1.03418 0.2696786 1.560876 1.0483062 0.4371475 -0.60611427 -0.18467548
0.83218807 -0.51104814 -0.92318326 -0.122948 0.029319337 -0.4393079 0.0762793 -0.5105483
-0.4651836 1.2744141 -0.42478278 -0.5937134 -0.45121652 -0.32856822 -0.8547463 0.54755145
0.26124603 -0.07608328 0.37727964 0.08048669 -0.018540714 -0.7324585 0.14790514 -0.007863989
-0.64986455 0.002195902 0.11745723 -0.19313368 0.04273538 -0.1567239 1.0248578 -0.45096484
0.07833703 -0.32436424 -0.11525663 0.10628092 0.12097648 0.21942015 0.16721343 0.40028143
0.2413825 0.01945363 0.7096437 -0.25396255 -0.32578462 0.18275493 0.97932565 0.43908057
1.2724342 -0.6533874 -0.10353963 -0.0530376 0.92322314 0.5976996 -0.37162596 -1.4627906
-0.18146645 -0.86080605 0.095576264 0.30641323 -0.024063105 0.19922896 0.21211767 -0.51273817
1.0935862 0.18451837 -0.31449097 -0.12836827 0.31006685 0.10474337 -1.126197 -0.8112724
0.1460883 0.39693078 0.061376244 -0.8782762 -0.6158849 -0.21580333 1.3475119 0.23174132
0.13918528 -0.5122436 0.98492813 0.7177983 -0.88827646 0.44824648 0.3707809 0.8665468
00000000: a887 c13f 0360 843f 5013 8a3e c9ca c73f
00000010: e62e 863f ccd1 df3e 4e2a 1bbf 921b 3dbe
00000020: 470a 553f 0dd4 02bf bd55 6cbf 29cc fbbd
00000030: 1b2f f03c f7ec e0be 5238 9c3d 4bb3 02bf
00000040: 8b2c eebe 0020 a33f 217d d9be 9afd 17bf
00000050: da05 e7be 183a a8be a7d0 5abf 552c 0c3f
00000060: 0ac2 853e 8dd1 9bbd cc2a c13e 35d6 a43d
00000070: b2e2 97bc 6682 3bbf 7274 173e f6d7 00bc
00000080: 865d 26bf 1fe9 0f3b 6b8d f03d d6c4 45be
00000090: 4b0b 2f3d 3b7c 20be 8a2e 833f dde4 e6be
000000a0: 2a6f a03d 1213 a6be ab0b ecbd d0a9 d93d
000000b0: 84c2 f73d adaf 603e ff39 2b3e b0f1 cc3e
000000c0: f92c 773e 385d 9f3c 36ab 353f 6107 82be
000000d0: 3ecd a6be 1c24 3b3e 16b5 7a3f 2bcf e03e
000000e0: 20df a23f 6644 27bf 960c d4bd f43d 59bd
000000f0: 5a58 6c3f d702 193f c245 bebe b93c bbbf
00000100: 57d2 39be c95d 5cbf 7dbd c33d 32e2 9c3e
00000110: fd1f c5bc ad02 4c3e 6035 593e cf42 03bf
00000120: a2fa 8b3f 62f2 3c3e f604 a1be f972 03be
00000130: 15c1 9e3e b183 d63d 3927 90bf 8caf 4fbf
00000140: 2c98 153e 833a cb3e a865 7b3d b6d6 60bf
00000150: a2aa 1dbf 8cfb 5cbe 457b ac3f 994d 6d3e
00000160: 9686 0e3e 6622 03bf 4024 7c3f a1c1 373f
00000170: 1666 63bf 9080 e53e fed6 bd3e 03d6 5d3f

dijetResNetBlock.conv.0.m f4 [1, 1, 1, 8]
1.035012 0.8968818 0.6794993 1.0445992 0.45671636 0.26754305 2.6798618 0.10052933
00000000: 467b 843f 0c9a 653f abf3 2d3f 6db5 853f
00000010: bad6 e93e 67fb 883e db82 2b40 52e2 cd3d

dijetResNetBlock.conv.0.s f4 [1, 1, 1, 8]
1.5256746 1.3847708 1.1923136 0.88056546 1.1082841 0.8905302 1.8817582 0.9593812
00000000: 4e49 c33f 2b40 b13f bb9d 983f bd6c 613f
00000010: 41dc 8d3f caf9 633f 74dd f03f 029a 753f

dijetResNetBlock.conv.0.conv.bias f4 [1, 8, 1]
1.7100655 0.0774217 1.2970197 -1.9708662 0.73781157 -0.83674234 1.2766923 -1.9767493
00000000: 6de3 da3f 458f 9e3d be04 a63f 5845 fcbf
00000010: 38e1 3c3f bf34 56bf a76a a33f 1f06 fdbf

dijetResNetBlock.conv.0.conv.module.weight f4 [4, 8, 1]
-0.61040163 0.21000995 -0.3512363 0.74025536 0.95475817 -1.1436316 0.15182282 -1.2504253
0.9925666 0.33917606 0.46587673 -0.15160145 -0.61265165 -0.51605064 -0.9214672 0.32221213
0.24429816 0.123787105 -0.21293604 0.29500207 0.6360203 -0.9859284 -0.56051785 -0.3809381
-0.9511064 0.3108578 0.028039102 -0.5975889 1.0803742 -0.38904956 -0.32981738 0.219524
00000000: 4843 1cbf d90c 573e 3fd5 b3be 6081 3d3f
00000010: 086b 743f 8562 92bf 7177 1b3e f00d a0bf
00000020: d818 7e3f 7ca8 ad3e 6587 ee3e 693d 1bbe
00000030: bdd6 1cbf e51b 04bf 46e5 6bbf fdf8 a43e
00000040: 4c29 7a3e 1884 fd3d e80b 5abe 830a 973e
00000050: 3ad2 223f ce65 7cbf 197e 0fbf 520a c3be
00000060: b67b 73bf c128 9f3e 42b2 e53c 96fb 18bf
00000070: b449 8a3f 8131 c7be d3dd a8be e6ca 603e

attention_oo.q_GBN.gamma f4 [8]
0.95311934 0.1214298 0.8687689 0.18291095 -0.03712303 0.088572495 1.7296689 0.14685653
00000000: a1ff 733f 30b0 f83d a367 5e3f 024d 3b3e
00000010: 510e 18bd 7f65 b53d ca65 dd3f 8f61 163e

attention_oo.q_GBN.bias f4 [8]
0.97321457 2.7692087 1.2362916 1.3590243 1.5187 4.24176 0.5215707 -0.34926715
00000000: 9724 793f b73a 3140 ce3e 9e3f 82f4 ad3f
00000010: c364 c23f 7fbc 8740 a885 053f 25d3 b2be

attention_oo.q_GBN.m f4 [1, 1, 1, 8]
0.4951228 3.9528801 2.8916042 0.113590516 4.383325 3.4323595 1.1658762 1.499193
00000000: bc80 fd3e fdfb 7c40 0b10 3940 25a2 e83d
00000010: 3344 8c40 c7ab 5b40 6e3b 953f 8ee5 bf3f

attention_oo.q_GBN.s f4 [1, 1, 1, 8]
1.3051453 2.1982393 2.6942143 0.41601312 1.9406736 2.3194213 1.9272443 2.0862164
00000000: 000f a73f f4af 0c40 026e 2c40 acff d43e
00000010: fe67 f83f 6671 1440 f1af f63f 9284 0540

attention_oo.v_GBN.gamma f4 [8]
0.84501535 0.6822472 0.65139985 0.42345282 1.552126 1.2395744 0.13792567 0.23798199
00000000: ed52 583f c1a7 2e3f 24c2 263f cfce d83e
00000010: 11ac c63f 60aa 9e3f 633c 0d3e 8db1 733e

attention_oo.v_GBN.bias f4 [8]
-0.8834315 0.27766198 2.3524978 1.1656693 0.08590616 0.83491546 -0.009133282 -0.3242357
00000000: 9128 62bf b629 8e3e 538f 1640 a734 953f
00000010: 92ef af3d 05bd 553f c3a3 15bc 3902 a6be

attention_oo.v_GBN.m f4 [1, 1, 1, 8]
0.4951228 3.9528801 2.8916042 0.113590516 4.383325 3.4323595 1.1658762 1.499193
00000000: bc80 fd3e fdfb 7c40 0b10 3940 25a2 e83d
00000010: 3344 8c40 c7ab 5b40 6e3b 953f 8ee5 bf3f

attention_oo.v_GBN.s f4 [1, 1, 1, 8]
1.3051453 2.1982393 2.6942143 0.41601312 1.9406736 2.3194213 1.9272443 2.0862164
00000000: 000f a73f f4af 0c40 026e 2c40 acff d43e
00000010: fe67 f83f 6671 1440 f1af f63f 9284 0540

attention_oo.qv_GBN.gamma f4 [8]
-1.775998 2.3671772 0.83806664 1.7683009 1.2579317 2.5742326 1.3847026 1.3580284
00000000: e753 e3bf d57f 1740 898b 563f af57 e23f
00000010: e803 a13f 3ac0 2440 ef3d b13f e0d3 ad3f

attention_oo.qv_GBN.bias f4 [8]
0.70648354 0.025143562 -0.16279657 1.4084215 0.104398176 1.1745799 -0.13179505 0.055197578
00000000: 1bdc 343f dff9 cd3c 25b4 26be 2847 b43f
00000010: b6ce d53d a258 963f 48f5 06be db16 623d

attention_oo.qv_GBN.m f4 [1, 1, 1, 8]
4.655653 2.9453704 1.9427204 4.4426384 1.7505989 2.481109 3.5622683 1.6800865
00000000: 1cfb 9440 f380 3c40 10ab f83f 182a 8e40
00000010: a013 e03f 7dca 1e40 34fc 6340 130d d73f

attention_oo.qv_GBN.s f4 [1, 1, 1, 8]
1.6671425 4.6247272 2.143392 2.9356816 1.7539762 3.212205 2.472214 3.8796482
00000000: ed64 d53f c4fd 9340 562d 0940 35e2 3b40
00000010: 4b82 e03f c494 4d40 c138 1e40 284c 7840

attention_oo.score_GBN.gamma f4 [2]
-0.7467036 0.59843576
00000000: f827 3fbf 1633 193f

attention_oo.score_GBN.bias f4 [2]
0.5351132 2.7568412
00000000: 2efd 083f 1670 3040

attention_oo.score_GBN.m f4 [1, 1, 1, 2]
6.228859 4.3879037
00000000: d052 c740 b569 8c40

attention_oo.score_GBN.s f4 [1, 1, 1, 2]
4.7748966 7.319606
00000000: f4cb 9840 363a ea40

attention_oo.conv.m f4 [1, 1, 1, 8]
-0.06193004 -0.031602867 1.1022269 1.2486396 0.6941774 2.513259 0.07635961 0.1479922
00000000: 5baa 7dbd 0272 01bd c515 8d3f 6cd3 9f3f
00000010: 9cb5 313f 3cd9 2040 6d62 9c3d 448b 173e

attention_oo.conv.s f4 [1, 1, 1, 8]
0.20515633 0.37091625 0.40658915 0.5768024 0.794346 1.6493214 0.16052239 0.63865083
00000000: 8014 523e bce8 bd3e 742c d03e 52a9 133f
00000010: 425a 4b3f f71c d33f fb5f 243e 9f7e 233f

attention_oo.conv.conv.bias f4 [1, 8, 1]
1.2551308 4.0211525 1.5709518 0.22802548 2.8359945 1.808802 -0.7458776 2.4702177
00000000: 20a8 a03f 48ad 8040 f314 c93f 837f 693e
00000010: ef80 3540 d386 e73f d6f1 3ebf 0c18 1e40

attention_oo.conv.conv.module.weight f4 [4, 8, 1]
-0.16539223 -3.088093 0.20915866 -1.1533281 -1.222339 -0.62163043 -0.8722014 -1.0900525
0.01400101 0.2636579 -0.23323789 0.36493748 0.4946063 0.9254548 -1.632547 -0.9616607
0.2095097 0.44007486 -0.04987085 0.48838732 -0.02852939 -0.11195002 0.7911661 -0.25877565
-1.9859519 -0.8231909 1.2039664 -2.6655545 -1.6830312 -0.084713235 -0.6153563 -0.69371283
00000000: 955c 29be 51a3 45c0 b02d 563e 41a0 93bf
00000010: 9b75 9cbf 2c23 1fbf 9748 5fbf d786 8bbf
00000020: 7e64 653c 2bfe 863e ead5 6ebe 16d9 ba3e
00000030: 093d fd3e 9bea 6c3f 4df7 d0bf 652f 76bf
00000040: b689 563e 7e51 e13e 6045 4cbd e70d fa3e
00000050: 78b6 e9bc 0d46 e5bd dd89 4a3f 3e7e 84be
00000060: ac33 febf a4bc 52bf 921b 9a3f 7298 2ac0
00000070: 916d d7bf 227e adbd fe87 1dbf 2a97 31bf

attention_do.q_GBN.gamma f4 [8]
0.15268916 -0.56126004 0.28752702 0.5318336 1.8012902 1.2619828 0.16508664 -0.095495254
00000000: 8c5a 1c3e bdae 0fbf be36 933e 3f26 083f
00000010: ad90 e63f a788 a13f 790c 293e 0493 c3bd

attention_do.q_GBN.bias f4 [8]
0.13100877 -2.9831011 -1.0858533 0.21487643 -1.6426096 0.7929463 0.9751144 -1.3437159
00000000: 2a27 063e 21eb 3ec0 3efd 8abf 9108 5c3e
00000010: 0841 d2bf 87fe 4a3f 19a1 793f e2fe abbf

attention_do.q_GBN.m f4 [1, 1, 1, 8]
3.1673248 2.5580497 1.9698772 1.9746747 2.5599022 1.8542438 2.02306 1.6558394
00000000: 73b5 4a40 16b7 2340 f024 fc3f 24c2 fc3f
00000010: 70d5 2340 dc57 ed3f d179 0140 8cf2 d33f

attention_do.q_GBN.s f4 [1, 1, 1, 8]
4.776473 2.9410813 4.125584 2.9893026 4.1083255 2.807278 2.7463305 2.9725246
00000000: ded8 9840 ad3a 3c40 c904 8440 bc50 3f40
00000010: 6777 8340 71aa 3340 e1c3 2f40 d83d 3e40

attention_do.v_GBN.gamma f4 [8]
-1.7270263 1.6419767 1.6895933 0.5246485 0.47559848 1.4823213 1.3184575 2.1659522
00000000: 330f ddbf 4b2c d23f 9844 d83f 5d4f 063f
00000010: a581 f33e b4bc bd3f 37c3 a83f f69e 0a40

attention_do.v_GBN.bias f4 [8]
1.341331 1.5019226 1.4619529 0.58482856 0.7985992 1.7423253 0.9947305 0.46557805
00000000: bcb0 ab3f 003f c03f 4621 bb3f 53b7 153f
00000010: ff70 4c3f 8404 df3f a8a6 7e3f 3f60 ee3e

attention_do.v_GBN.m f4 [1, 1, 1, 8]
1.6717889 7.9707475 4.2617407 0.7356875 7.1879907 5.313681 0.9348442 3.9143136
00000000: 2efd d53f 5d10 ff40 2e60 8840 0456 3c3f
00000010: 0504 e640 ad09 aa40 f351 6f3f 1d84 7a40

attention_do.v_GBN.s f4 [1, 1, 1, 8]
1.9112304 2.1623604 3.137989 1.2805969 3.4758418 2.2072842 1.8096029 3.5679214
00000000: 33a3 f43f 1d64 0a40 d0d4 4840 99ea a33f
00000010: 3174 5e40 2544 0d40 11a1 e73f d358 6440

attention_do.qv_GBN.gamma f4 [8]
1.6182712 0.6551453 0.9503739 0.49773976 0.9340979 2.0805387 0.1439373 1.6182166
00000000: 8323 cf3f 9ab7 273f b44b 733f bfd7 fe3e
00000010: 0a21 6f3f 8c27 0540 4d64 133e b921 cf3f

attention_do.qv_GBN.bias f4 [8]
1.8887237 3.6633468 0.7118795 1.0479592 -0.7133138 0.9456831 0.42137408 0.63905257
00000000: b3c1 f13f 4674 6a40 bc3d 363f 8723 863f
00000010: bc9b 36bf 4a18 723f 58be d73e f398 233f

attention_do.qv_GBN.m f4 [1, 1, 1, 8]
4.354434 3.444292 6.184352 0.33969653 1.9937557 0.5414187 0.57664365 4.355191
00000000: 8657 8b40 486f 5c40 36e6 c540 b4ec ad3e
00000010: 6333 ff3f 6a9a 0a3f eb9e 133f ba5d 8b40

attention_do.qv_GBN.s f4 [1, 1, 1, 8]
1.1782005 4.1376104 2.5876136 0.73130095 1.2103611 1.1719059 1.1176083 3.8825731
00000000: 46cf 963f 4e67 8440 769b 2540 8a36 3b3f
00000010: 1ded 9a3f 0301 963f ca0d 8f3f 147c 7840

attention_do.score_GBN.gamma f4 [2]
0.48648062 0.8942451
00000000: fd13 f93e 3fed 643f

attention_do.score_GBN.bias f4 [2]
0.9241911 0.941051
00000000: ca97 6c3f b8e8 703f

attention_do.score_GBN.m f4 [1, 1, 1, 2]
1.7044911 1.6582855
00000000: c42c da3f b342 d43f

attention_do.score_GBN.s f4 [1, 1, 1, 2]
6.2256103 6.6831727
00000000: 3338 c740 8ddc d540

attention_do.conv.m f4 [1, 1, 1, 8]
2.6806183 3.5529318 1.4339197 1.1090816 0.18248457 2.1190557 1.3239614 0.96393484
00000000: 408f 2b40 3c63 6340 ae8a b73f 63f6 8d3f
00000010: 3cdd 3a3e 9c9e 0740 9177 a93f 6fc4 763f

attention_do.conv.s f4 [1, 1, 1, 8]
1.0306835 0.6637605 0.7697341 0.37379918 0.44203267 1.9781582 0.95249104 1.4446357
00000000: 70ed 833f 35ec 293f 4b0d 453f 9b62 bf3e
00000010: 1b52 e23e 4a34 fd3f 74d6 733f d3e9 b83f

attention_do.conv.conv.bias f4 [1, 8, 1]
0.39665008 1.2638885 -1.4429872 -0.18781786 -0.11167155 0.95832914 -0.7087869 0.39455464
00000000: b815 cb3e 19c7 a13f ceb3 b8bf 5353 40be
00000010: 0eb4 e4bd 0f55 753f 0f73 35bf 1103 ca3e

attention_do.conv.conv.module.weight f4 [4, 8, 1]
-0.8933931 -0.7146832 0.5925231 -1.1795919 0.106201105 -1.4934129 -0.06837254 -0.16852207
-1.2288885 -1.8469583 0.27316594 -0.07081649 -1.4779359 2.267661 0.9921789 0.28870916
-0.34363484 -1.1390967 -0.22101894 -0.24669784 -0.15386207 1.869507 0.82923883 0.7642896
-0.20831849 0.97796005 1.9688733 0.24344476 -0.27416468 1.5040686 -0.64836216 -1.0078697
00000000: 69b5 64bf 7af5 36bf 98af 173f defc 96bf
00000010: f77f d93d 2728 bfbf e706 8cbd 0d91 2cbe
00000020: 384c 9dbf 2169 ecbf 68dc 8b3e 3c08 91bd
00000030: 012d bdbf 5c21 1140 70ff 7d3f b0d1 933e
00000040: e8f0 afbe eccd 91bf ca52 62be 5c9e 7cbe
00000050: 058e 1dbe 014c ef3f ff48 543f 7ca8 433f
00000060: 7151 55be 975b 7a3f 0a04 fc3f 9549 793e
00000070: 505f 8cbe 5285 c03f 10fb 25bf e001 81bf

quadjetResNetBlock.reinforce.0.sym.weight f4 [8, 1, 2]
0.5 0.5 0.5 0.5 0.5 0.5 0.5 0.5
0.5 0.5 0.5 0.5 0.5 0.5 0.5 0.5
00000000: 0000 003f 0000 003f 0000 003f 0000 003f
00000010: 0000 003f 0000 003f 0000 003f 0000 003f
00000020: 0000 003f 0000 003f 0000 003f 0000 003f
00000030: 0000 003f 0000 003f 0000 003f 0000 003f

quadjetResNetBlock.reinforce.0.antisym.weight f4 [8, 1, 2]
0.5 -0.5 0.5 -0.5 0.5 -0.5 0.5 -0.5
0.5 -0.5 0.5 -0.5 0.5 -0.5 0.5 -0.5
00000000: 0000 003f 0000 00bf 0000 003f 0000 00bf
00000010: 0000 003f 0000 00bf 0000 003f 0000 00bf
00000020: 0000 003f 0000 00bf 0000 003f 0000 00bf
00000030: 0000 003f 0000 00bf 0000 003f 0000 00bf

quadjetResNetBlock.reinforce.0.conv.m f4 [1, 1, 3, 8]
3.0918767 3.5621827 2.3326159 2.1490805 2.2170162 2.5204647 2.5027232 2.065706
1.6084579 1.0708885 1.7021425 1.441411 1.2366196 0.9853152 1.3537531 1.386829
0.66245097 0.11929395 0.79019356 0.53115344 0.19352847 0.20321792 -0.024608042 0.18373978
00000000: 4fe1 4540 cdfa 6340 9449 1540 898a 0940
00000010: 98e3 0d40 4b4f 2140 9e2c 2040 8734 0440
00000020: f3e1 cd3f e012 893f cedf d93f 2880 b83f
00000030: 8d49 9e3f 9e3d 7c3f c847 ad3f 9d83 b13f
00000040: 6396 293f 6350 f43d 204a 4a3f acf9 073f
00000050: 542c 463e 5c18 503e ce96 c9bc 4826 3c3e

quadjetResNetBlock.reinforce.0.conv.s f4 [1, 1, 3, 8]
3.6662543 2.9981818 3.772031 2.7019553 3.16061 3.1622925 2.7978098 2.5570292
1.8618882 1.0043068 2.7130752 1.7340919 1.6777134 1.0922247 1.5306727 1.6002371
0.92493075 0.5012665 0.8793956 0.7004652 0.82115537 0.45609957 0.4720707 0.8045019
00000000: e9a3 6a40 36e2 3f40 f568 7140 d6ec 2c40
00000010: 6f47 4a40 0063 4a40 510f 3340 5ea6 2340
00000020: 5a52 ee3f 208d 803f 06a3 2d40 b9f6 dd3f
00000030: 50bf d63f 05ce 8b3f 15ed c33f 92d4 cc3f
00000040: 43c8 6c3f 0053 003f 1220 613f b051 333f
00000050: 3d37 523f e285 e93e 40b3 f13e d6f3 4d3f

quadjetResNetBlock.reinforce.0.conv.conv.bias f4 [1, 8, 1]
2.9103239 0.5122892 -0.093972966 -1.0318023 -0.7548418 1.5986804 0.18837056 -0.51931155
00000000: bf42 3a40 6325 033f e674 c0bd 1912 84bf
00000010: 503d 41bf 8fa1 cc3f 36e4 403e 9af1 04bf

quadjetResNetBlock.reinforce.0.conv.conv.module.weight f4 [4, 8, 3]
0.21644084 0.30421788 -0.32330325 -1.0899467 0.08067723 -0.17882317 -0.15566902 0.17670847
-0.2664862 -0.9893724 -0.16021633 0.42290694 0.31167212 -0.10725028 0.5674314 2.3106518
0.32403362 0.12993754 1.7218544 0.8493962 0.4504419 1.3776405 0.135259 0.2683008
-1.1240671 -0.3498235 0.27831075 -0.48818263 -0.24216338 -0.051507726 -1.0180218 -0.6775489
-0.8643721 -0.1921093 -0.3636063 -0.07865946 0.71091956 0.34469858 -0.07537264 -0.53167737
0.51079255 -0.20148538 1.3903111 1.528836 0.28694734 -1.1782027 -0.52850866 0.26732785
-1.0732977 -0.2609558 0.4148024 0.040997695 0.5671987 0.16923313 -0.46110767 -0.09151599
-0.75273913 1.6041745 -0.1575618 0.67315376 1.1594127 -0.45603964 0.2576771 -2.1201777
-0.2637205 0.18268788 1.2585913 0.33306786 1.147661 -0.33763838 -0.24348801 0.16189301
-1.4188037 0.40145677 0.7671466 0.42606407 1.0221019 0.24142542 -0.43533194 -0.62857956
0.6798218 -1.3614795 0.18107039 -1.0809387 1.0070809 0.002914623 0.78882086 -0.29366684
0.22593658 0.3182134 -0.7589321 -0.4356685 1.0649188 1.875506 -0.22311486 0.75035614
00000000: aba2 5d3e 72c2 9b3e 0188 a5be 6083 8bbf
00000010: 1b3a a53d 6c1d 37be b367 1fbe 11f3 343e
00000020: e170 88be 8247 7dbf c00f 24be 4287 d83e
00000030: 7d93 9f3e 09a6 dbbd 2f43 113f b8e1 1340
00000040: bce7 a53e 590e 053e ba65 dc3f 0872 593f
00000050: 52a0 e63e 8656 b03f 5681 0a3e b95e 893e
00000060: 6ee1 8fbf 111c b3be bf7e 8e3e 13f3 f9be
00000070: adf9 77be c4f9 52bd 8a4e 82bf d873 2dbf
00000080: 7d47 5dbf 4db8 44be 9b2a babe 3618 a1bd
00000090: d3fe 353f 557c b03e f85c 9abd 021c 08bf
000000a0: 4dc3 023f 2f52 4ebe b7f5 b13f e6b0 c33f
000000b0: c3ea 923e 59cf 96bf 584c 07bf 32df 883e
000000c0: d261 89bf 009c 85be fb60 d43e 33ed 273d
000000d0: ef33 113f 734b 2d3e 4e16 ecbe bc6c bbbd
000000e0: 83b3 40bf 9755 cd3f e157 21be ce53 2c3f
000000f0: a367 943f 077e e9be 41ee 833e feb0 07c0
00000100: 6006 87be 8812 3b3e 8519 a13f df87 aa3e
00000110: 8ee6 923f f0de acbe ec54 79be 48c7 253e
00000120: 5c9b b5bf be8b cd3e b863 443f 1225 da3e
00000130: 3cd4 823f 3a38 773e d4e3 debe 97ea 20bf
00000140: cd08 2e3f f644 aebf 846a 393e 335c 8abf
00000150: 07e8 803f 4203 3f3b 2af0 493f 805b 96be
00000160: eb5b 673e deec a23e 6049 42bf f10f dfbe
00000170: 424f 883f 9510 f03f 3978 64be 5717 403f

quadjetResNetBlock.reinforce.1.sym.weight f4 [8, 1, 2]
0.5 0.5 0.5 0.5 0.5 0.5 0.5 0.5
0.5 0.5 0.5 0.5 0.5 0.5 0.5 0.5
00000000: 0000 003f 0000 003f 0000 003f 0000 003f
00000010: 0000 003f 0000 003f 0000 003f 0000 003f
00000020: 0000 003f 0000 003f 0000 003f 0000 003f
00000030: 0000 003f 0000 003f 0000 003f 0000 003f

quadjetResNetBlock.reinforce.1.antisym.weight f4 [8, 1, 2]
0.5 -0.5 0.5 -0.5 0.5 -0.5 0.5 -0.5
0.5 -0.5 0.5 -0.5 0.5 -0.5 0.5 -0.5
00000000: 0000 003f 0000 00bf 0000 003f 0000 00bf
00000010: 0000 003f 0000 00bf 0000 003f 0000 00bf
00000020: 0000 003f 0000 00bf 0000 003f 0000 00bf
00000030: 0000 003f 0000 00bf 0000 003f 0000 00bf

quadjetResNetBlock.reinforce.1.conv.m f4 [1, 1, 3, 8]
3.6314955 4.2439804 3.0056555 1.8380716 2.3109117 4.276878 3.913066 2.3051317
1.7794113 0.93420535 2.1010761 1.138645 1.4583151 0.99206746 1.8014741 1.534265
3.516279 2.3147905 1.9519622 1.683092 0.79745096 3.074786 1.3107455 1.5094796
00000000: 6c6a 6840 b0ce 8740 a95c 4040 ee45 eb3f
00000010: fae5 1340 2fdc 8840 ac6f 7a40 4787 1340
00000020: c0c3 e33f 1528 6f3f 0878 0640 1fbf 913f
00000030: 12aa ba3f 22f8 7d3f b496 e63f cc62 c43f
00000040: b70a 6140 8725 1440 e6d9 f93f 8f6f d73f
00000050: bf25 4c3f 4bc9 4440 82c6 a73f a136 c13f

quadjetResNetBlock.reinforce.1.conv.s f4 [1, 1, 3, 8]
3.698913 2.9173214 5.109197 2.241275 3.6137424 3.1891608 3.815301 2.9055514
1.8456695 0.79355055 3.5573177 1.3276538 2.2014601 0.8816905 1.8547611 1.8199412
3.3041375 2.9943426 2.6349642 2.8555474 1.6922756 3.8904936 2.5957658 2.6491878
00000000: feba 6c40 65b5 3a40 8b7e a340 0d71 0f40
00000010: 8e47 6740 361b 4c40 e42d 7440 8ef4 3940
00000020: e63e ec3f 2126 4b3f 18ab 6340 8ff0 a93f
00000030: b9e4 0c40 78b6 613f d068 ed3f d5f3 e83f
00000040: fd76 5340 4fa3 3f40 41a3 2840 4ac1 3640
00000050: 7d9c d83f d9fd 7840 0721 2640 4b8c 2940

quadjetResNetBlock.reinforce.1.conv.conv.bias f4 [1, 8, 1]
-0.116355285 -0.3117073 1.4645075 0.2653705 -0.05187778 0.14790322 -1.4651389 -0.3257271
00000000: ae4b eebd 1998 9fbe fb74 bb3f a4de 873e
00000010: cc7d 54bd f173 173e ac89 bbbf b4c5 a6be

quadjetResNetBlock.reinforce.1.conv.conv.module.weight f4 [4, 8, 3]
1.5297846 -0.47148833 -0.8347827 0.051730413 -0.08093105 -0.094076216 -0.6974813 -0.13505684
0.44256824 2.1887262 -0.2055578 -0.5455415 -0.6772034 -0.64378923 -1.300553 -0.43613598
-0.07717109 -0.2076466 1.3629925 -1.2284185 -0.21203254 -0.54229414 -0.053659722 1.0818868
-0.80714077 -0.06566421 0.86177695 -1.8578575 -0.4422232 1.6945493 -0.49864355 -0.19238949
0.50726837 0.418875 -0.05963436 -0.07664888 0.08274435 0.033835314 -0.5571532 3.8173823
-0.08046989 -0.29022297 1.2481246 -0.34946066 0.4515935 0.017990293 -0.11558812 0.052097183
0.8965056 0.0015053694 -0.36470285 -0.8273172 -0.04461135 0.8440523 -0.27836367 0.02585644
-0.53198135 -0.12910314 -0.47355536 0.07108949 -0.350653 -0.62253714 -0.71789265 1.1889733
0.009255979 -0.2523853 1.7909968 0.42072862 0.28129223 1.046746 -0.15069744 -0.03276723
2.3337653 -0.02041097 0.2572823 -0.02591599 0.35305265 0.110319555 0.8277619 0.18742512
-0.5730731 -0.2920372 -0.17323999 -0.25582987 -0.6421156 -0.42149922 -0.36239737 1.2329693
-0.2405689 -0.05433176 -0.14684698 -0.19044138 0.9677384 0.55117786 0.037449498 0.35813078
00000000: fbcf c33f eb66 f1be 52b4 55bf 45e3 533d
00000010: 2ebf a5bd 08ab c0bd 228e 32bf 574c 0abe
00000020: 4e98 e23e 1714 0c40 be7d 52be 9ca8 0bbf
00000030: 345d 2dbf 5fcf 24bf 8578 a6bf 374d dfbe
00000040: e00b 9ebd 4fa1 54be 8a76 ae3f d13c 9dbf
00000050: 0f1f 59be cad3 0abf 4cca 5bbd 447b 8a3f
00000060: c7a0 4ebf f57a 86bd 6a9d 5c3f 46ce edbf
00000070: 146b e2be fee6 d83f 354e ffbe c001 45be
00000080: 57dc 013f c976 d63e 2943 74bd 17fa 9cbd
00000090: df75 a93d e696 0a3d 98a1 0ebf fe4f 7440
000000a0: 66cd a4bd 1b98 94be 8cc2 9f3f 82ec b2be
000000b0: 4337 e73e 6160 933c 77b9 ecbd db63 553d
000000c0: 6481 653f d14f c53a 55ba babe 0fcb 53bf
000000d0: 64ba 36bd d013 583f af85 8ebe e3d0 d33c
000000e0: ee2f 08bf 9d33 04be d975 f2be 5e97 913d
000000f0: ca88 b3be 985e 1fbf d0c7 37bf 4730 983f
00000100: 64a6 173c a538 81be 623f e53f be69 d73e
00000110: 8905 903e c6fb 853f 6e50 1abe ee36 06bd
00000120: 695c 1540 e834 a7bc 81ba 833e c54d d4bc
00000130: 51c3 b43e 38ef e13d 34e8 533f 5fec 3f3e
00000140: ebb4 12bf e685 95be d365 31be 22fc 82be
00000150: b061 24bf bfce d7be 268c b9be f0d1 9d3f
00000160: b257 76be fb8a 5ebd 0e5f 16be 1103 43be
00000170: b4bd 773f fe19 0d3f a564 193d eb5c b73e

quadjetResNetBlock.conv.0.m f4 [1, 1, 1, 8]
3.0918767 3.5621827 2.3326159 2.1490805 2.2170162 2.5204647 2.5027232 2.065706
00000000: 4fe1 4540 cdfa 6340 9449 1540 898a 0940
00000010: 98e3 0d40 4b4f 2140 9e2c 2040 8734 0440

quadjetResNetBlock.conv.0.s f4 [1, 1, 1, 8]
4.415448 3.3383482 4.9483657 3.5193202 3.78608 3.4876726 3.4646068 3.320069
00000000: 5a4b 8d40 7fa7 5540 0359 9e40 8b3c 6140
00000010: 224f 7240 0736 5f40 1ebc 5d40 037c 5440

quadjetResNetBlock.conv.0.conv.bias f4 [1, 8, 1]
0.48851776 1.1041015 -1.1190369 -0.23995265 -0.54917 2.528557 1.433996 0.8196352
00000000: 001f fa3e 3353 8d3f 9a3c 8fbf 26b6 75be
00000010: 6896 0cbf e1d3 2140 2e8d b73f 9dd3 513f

quadjetResNetBlock.conv.0.conv.module.weight f4 [4, 8, 1]
-0.6353281 -0.398155 0.44461894 -0.9836207 -0.9484829 0.86325616 1.4014702 -0.7114533
0.6097575 -0.6851399 -0.14068852 0.037538905 -0.34506124 0.17995574 -0.97488946 -0.16918644
0.7148724 -1.2108212 0.8881616 0.46354797 -0.10914669 2.575973 0.92986375 0.41732803
-1.2885741 -1.7842056 0.25367287 -0.8303324 -0.19561714 -0.5530727 0.049513955 -0.53957975
00000000: dda4 22bf f9da cbbe 18a5 e33e 91ce 7bbf
00000010: c6cf 72bf 5bfe 5c3f 6063 b33f ce21 36bf
00000020: 1119 1c3f 5465 2fbf a710 10be 65c2 193d
00000030: deab b0be 5146 383e 5b92 79bf 363f 2dbe
00000040: e101 373f 30fc 9abf 8f5e 633f 2956 ed3e
00000050: 4d88 dfbd bedc 2440 8d0b 6e3f 05ac d53e
00000060: ffef a4bf d960 e4bf 69e1 813e aa90 54bf
00000070: dc4f 48be 2c96 0dbf 25cf 4a3d e621 0abf

select_q.m f4 [1, 1, 1, 8]
2.11781 2.9375007 2.8852425 2.4096434 1.7029929 3.250479 0.5399672 1.7944531
00000000: 338a 0740 0300 3c40 d0a7 3840 9937 1a40
00000010: acfb d93f d907 5040 4a3b 0a3f a4b0 e53f

select_q.s f4 [1, 1, 1, 8]
3.235592 4.386434 2.7663236 4.193568 2.9698436 4.5787334 1.670306 2.6669168
00000000: f013 4f40 ab5d 8c40 720b 3140 b631 8640
00000010: eb11 3e40 fc84 9240 96cc d53f c4ae 2a40

select_q.conv.module.weight f4 [1, 8, 1]
-0.117976554 -0.21848594 -0.2698737 0.5672756 0.011126069 0.60642785 0.36643136 -0.4524594
00000000: b19d f1bd c7ba 5fbe e32c 8abe f938 113f
00000010: 1e4a 363c db3e 1b3f e49c bb3e c2a8 e7be

out.m f4 [1, 1, 1, 8]
2.454167 2.8737104 2.4249 4.2849617 1.3576583 3.9157212 0.8128729 0.98481286
00000000: 1211 1d40 dfea 3740 9031 1b40 681e 8940
00000010: bfc7 ad3f 2d9b 7a40 7018 503f b21c 7c3f

out.s f4 [1, 1, 1, 8]
3.169152 4.2955437 2.3621404 4.173142 2.318001 4.889849 1.8359636 1.556744
00000000: 63d3 4a40 1875 8940 4f2d 1740 618a 8540
00000010: 215a 1440 a579 9c40 db00 eb3f 6343 c73f

out.conv.module.weight f4 [4, 8, 1]
0.13206373 0.1944051 -0.02351167 0.27121076 -0.023157323 -0.28723687 -0.09150778 -0.048155364
-0.2552307 0.14843334 -0.10185947 0.08761725 0.2338535 -0.32537097 0.16636944 0.014211118
-0.10913234 -1.1707556 0.26507485 0.12638906 -0.005259023 1.0603311 -0.25802663 0.09651539
0.049111694 -0.7477578 -0.27247193 -0.3540267 -0.028114768 0.43595886 0.14485629 0.21566698
00000000: b73b 073e 2112 473e 8c9b c0bc 23dc 8a3e
00000010: 6db4 bdbc b610 93be 6e68 bbbd 8f3e 45bd
00000020: 99ad 82be e9fe 173e b39b d0bd ac70 b33d
00000030: 4b77 6f3e 0697 a6be c05c 2a3e c0d5 683c
00000040: c780 dfbd 52db 95bf e4b7 873e 226c 013e
00000050: e253 acbb eeb8 873f 111c 84be dca9 c53d
00000060: 5829 493d 0e6d 3fbf 7181 8bbe fd42 b5be
00000070: f150 e6bc 0036 df3e 3555 143e ced7 5c3e

out.conv.module.bias f4 [4]
1.2402451 1.6065086 -2.709657 -0.6857672
00000000: 5ac0 9e3f 13a2 cd3f 056b 2dc0 708e 2fbf

exp_avg f4 [4, 4, 1]
-0.0006764494 -6.910686e-05 3.8613784e-05 0.0001952784 0.0021034433 -0.00058686297 -0.0011061162 -0.00072428485
-0.0008650406 -0.00020066489 0.0006971012 -0.00046147787 0.00030933355 -0.00014293045 0.0004541044 0.00061806967
00000000: c053 31ba 77ed 90b8 3cf5 2138 a5c3 4c39
00000010: ecd9 093b b5d7 19ba 1afb 90ba efdd 3dba
00000020: e4c3 62ba 9269 52b9 abbd 363a 83f2 f1b9
00000030: 0c2e a239 9adf 15b9 dc14 ee39 f405 223a

exp_avg_sq f4 [4, 4, 1]
3.913416e-06 4.6060295e-06 3.766226e-06 3.0111785e-06 7.578091e-05 0.00010279183 7.0926006e-05 5.758428e-05
1.0887837e-05 9.8501005e-06 1.1340091e-05 1.134863e-05 3.6642687e-05 4.29549e-05 3.7545295e-05 3.6396403e-05
00000000: fd4f 8336 7e8d 9a36 45bf 7c36 a713 4a36
00000010: 91ec 9e38 f291 d738 1cbe 9438 a686 7138
00000020: e7aa 3637 dc41 2537 5241 3e37 ff65 3e37
00000030: c9b0 1938 792a 3438 f479 1d38 57a8 1838

exp_avg f4 [1, 8, 1]
-0.00018067597 0.00042217853 0.00021126385 0.0009558564 0.0001235618 0.00014734383 0.0004361002 -0.00022319614
00000000: d673 3db9 d857 dd39 b586 5d39 7092 7a3a
00000010: 5e90 0139 4f80 1a39 61a4 e439 c209 6ab9

exp_avg_sq f4 [1, 8, 1]
5.1542173e-07 6.652535e-06 3.997564e-06 1.2574357e-05 5.502327e-07 2.2896984e-06 2.7921328e-06 5.314556e-06
00000000: 835b 0a35 d738 df36 d022 8636 74f6 5237
00000010: b4b3 1335 b8a8 1936 7a60 3b36 b053 b236

exp_avg f4 [4, 4, 1]
-0.00022619359 1.473781e-05 -0.00011658435 -0.00023368416 0.00044329456 0.00014854714 0.00015333365 0.00040390735
-0.00030421236 0.0003229707 -1.5386806e-05 -0.00021964683 -0.0007778075 0.00082401274 -0.00104714 -0.0005029579
00000000: 612e 6db9 6942 7737 bf7e f4b8 1d09 75b9
00000010: fd69 e839 52c3 1b39 30c8 2039 87c3 d339
00000020: b17e 9fb9 6554 a939 ea12 81b7 ff50 66b9
00000030: c7e5 4bba 8f02 583a 3040 89ba efd8 03ba

exp_avg_sq f4 [4, 4, 1]
5.028426e-07 1.1473006e-06 5.11348e-07 5.951171e-07 4.6813316e-06 7.574907e-06 2.6772727e-06 6.910041e-06
2.5153195e-06 5.0954372e-06 2.2195693e-06 2.2533427e-06 9.662264e-06 2.172648e-05 1.0199212e-05 1.0611408e-05
00000000: 15fb 0635 f3fc 9935 9143 0935 23c0 1f35
00000010: 5514 9d36 f52b fe36 32ab 3336 cddc e736
00000020: dccc 2836 79f9 aa36 e9f3 1436 2238 1736
00000030: 1c1b 2237 4341 b637 481d 2b37 a607 3237

exp_avg f4 [1, 8, 1]
-0.00021447534 -0.0001591158 0.0004294388 -0.00028213192 0.00027541837 4.8961992e-05 -0.00031408932 -0.00017518448
00000000: c9e4 60b9 53d8 26b9 4d26 e139 1beb 93b9
00000010: 0766 9039 8a5c 4d38 5bac a4b9 bab1 37b9

exp_avg_sq f4 [1, 8, 1]
1.1902903e-06 1.6909748e-06 2.1697517e-06 2.782265e-06 1.0257747e-06 4.5537996e-07 1.8047165e-06 3.6998532e-07
00000000: 10c2 9f35 74f5 e235 0d9c 1136 f3b6 3a36
00000010: 5aad 8935 f27a f434 9639 f235 65a2 c634

exp_avg f4 [4, 8, 1]
0.00022673528 -9.730181e-05 5.516627e-05 -0.00030072933 -9.74724e-05 0.00018598555 -0.00014208375 0.00028668068
0.00013949303 0.00027879386 0.00025800517 3.8233236e-05 -0.00023220883 0.00011589151 -0.00011711012 0.00032224707
-8.6719e-06 0.0003991023 -0.00018049064 0.00030804807 -7.8694655e-05 -5.377932e-05 0.00057481223 -0.0002315766
0.0006492005 0.0005656299 0.00031891133 -0.00010186805 -0.00022656031 -0.00015301837 -1.43470525e-05 0.0005125836
00000000: cabf 6d39 830e ccb8 5562 6738 35ab 9db9
00000010: 196a ccb8 1e05 4339 51fc 14b9 a14d 9639
00000020: e044 1239 142b 9239 de44 8739 a05c 2038
00000030: 157d 73b9 c80a f338 0499 f5b8 45f3 a839
00000040: 877d 11b7 9b3e d139 1642 3db9 8381 a139
00000050: df08 a5b8 1b91 61b8 ffae 163a 5fd3 72b9
00000060: 1c2f 2a3a c846 143a 8e33 a739 fea1 d5b8
00000070: d290 6db9 8e73 20b9 1fb4 70b7 e75e 063a

exp_avg_sq f4 [4, 8, 1]
1.4518164e-06 2.2236181e-06 4.2656375e-06 2.2102724e-06 1.6070438e-06 1.8343176e-06 4.4621684e-06 1.1873868e-06
1.6213879e-06 1.201998e-06 2.816486e-06 1.3857243e-06 9.440147e-07 3.459053e-06 3.5750627e-06 2.3922485e-06
2.558116e-06 2.4750773e-06 8.904825e-06 3.4886864e-06 1.984766e-06 2.0346902e-06 7.065798e-06 2.1547276e-06
1.6460717e-06 2.5323282e-06 3.3832496e-06 1.315517e-06 1.2059369e-06 3.3009676e-06 3.007159e-06 1.7929846e-06
00000000: 08dc c235 7839 1536 8c21 8f36 3154 1436
00000010: 9bb1 d735 ac32 f635 bcb9 9536 4d5e 9f35
00000020: 779e d935 5654 a135 dc02 3d36 20fd b935
00000030: 3268 7d35 1422 6836 1ceb 6f36 848a 2036
00000040: 19ac 2b36 8119 2636 ef65 1537 2d1f 6a36
00000050: 0532 0536 b68b 0836 be16 ed36 f099 1036
00000060: 98ee dc35 11f1 2936 c90b 6336 d290 b035
00000070: addb a135 3186 5d36 99ce 4936 7ba6 f035

exp_avg f4 [1, 8, 1]
-0.00059964875 0.0016569789 -4.0011288e-05 -0.00024716934 -0.0001167427 -0.0009021662 7.570426e-05 8.120529e-05
00000000: bf31 1dba fc2e d93a cbd1 27b8 8296 81b9
00000010: c3d3 f4b8 597f 6cba 6ac3 9e38 c24c aa38

exp_avg_sq f4 [1, 8, 1]
2.3727218e-06 6.1506136e-05 1.7050747e-08 3.2877003e-07 6.6996597e-07 6.850776e-06 5.630293e-08 4.258113e-06
00000000: 0d3b 1f36 dbfc 8038 fd76 9232 cf81 b034
00000010: b6d7 3335 b8df e536 bad1 7133 eae0 8e36

exp_avg f4 [4, 4, 1]
0.00039364496 0.00015057063 0.00041827012 0.00067500357 -0.0011823742 8.453269e-06 -0.00092494703 -0.0028804825
5.387032e-05 4.9077607e-05 3.133558e-05 3.078128e-05 -0.00013898799 -5.8538253e-06 -0.000107034924 0.00024815227
00000000: 2262 ce39 7fe2 1d39 444b db39 b9f2 303a
00000010: e5f9 9aba 84d2 0d37 2578 72ba 7ac6 3cbb
00000020: d1f2 6138 aed8 4d38 536e 0338 261b 0138
00000030: 4ebd 11b9 fa6b c4b6 f077 e0b8 6f1a 8239

exp_avg_sq f4 [4, 4, 1]
2.6156536e-06 1.5539081e-06 2.8545232e-06 6.804218e-06 2.2179656e-05 2.661101e-05 2.916592e-05 5.020619e-05
4.010019e-08 5.2171323e-08 4.0665654e-08 5.607017e-08 1.5496037e-06 1.2905654e-06 1.1968025e-06 1.3224281e-06
00000000: 9688 2f36 e08f d035 5690 3f36 ca4f e436
00000010: 730e ba37 b53a df37 56a9 f437 7c94 5238
00000020: a03a 2c33 fa12 6033 5ca8 2e33 ced1 7033
00000030: fafb cf35 7d37 ad35 d2a1 a035 497e b135

exp_avg f4 [1, 8, 1]
0.00017949667 -0.0005403686 -4.4614757e-05 1.9088064e-05 -0.0009400738 4.757039e-05 0.00045456307 0.00010742595
00000000: 4537 3c39 86a7 0dba bb20 3bb8 4e1f a037
00000010: 496f 76ba 5186 4738 6c52 ee39 de49 e138

exp_avg_sq f4 [1, 8, 1]
2.6245602e-06 1.5049482e-05 3.351894e-06 4.6098157e-06 2.3258888e-05 1.4644971e-07 3.590558e-06 8.564507e-08
00000000: 9a21 3036 087d 7c37 1af1 6036 04ae 9a36
00000010: 151c c337 ca3f 1d34 51f5 7036 e0eb b733

exp_avg f4 [4, 8, 1]
0.0011931665 -5.7259807e-05 0.00017084175 5.399932e-05 -0.0010356646 -0.00016084335 -4.0970576e-06 5.4094464e-05
-0.0011514701 -0.00093787594 4.4080058e-05 -0.0008228845 0.00083822693 0.00056660303 -0.00051664107 0.0011434444
-0.00032085745 -0.0001896363 0.00031609458 -0.00071973744 0.00012441807 0.0002008685 -0.00057012 0.0008002578
0.00011429503 2.6900729e-05 -0.0001721165 0.00010879315 -2.0670408e-05 -1.31804845e-05 0.0002097462 -0.00032219503
00000000: 0664 9c3a 402a 70b8 fc23 3339 547d 6238
00000010: 23bf 87ba 0fa8 28b9 7579 89b6 7de3 6238
00000020: edec 96ba cadb 75ba 9ae2 3838 d8b6 57ba
00000030: 75bc 5b3a 1688 143a 326f 07ba a1df 953a
00000040: c238 a8b9 1bd9 46b9 7fb9 a539 c3ac 3cba
00000050: 3976 0239 3aa0 5239 1b74 15ba 64c8 513a
00000060: adb1 ef38 e0a8 e137 2c7a 34b9 e127 e438
00000070: 5d65 adb7 c021 5db7 51ef 5b39 49ec a8b9

exp_avg_sq f4 [4, 8, 1]
9.639015e-06 1.5636597e-05 2.113078e-05 3.3209974e-06 1.0981259e-05 6.994408e-06 4.674655e-06 8.326783e-06
8.91213e-06 8.603137e-06 5.171143e-06 4.818635e-06 6.410591e-06 4.7532562e-06 5.5286837e-06 1.1565101e-05
4.0731284e-06 2.7237904e-06 2.910228e-06 4.081045e-06 2.37828e-06 1.571486e-06 4.49153e-06 7.923502e-06
1.9871356e-06 1.8664645e-06 1.220832e-06 1.6872411e-06 1.850323e-06 1.99796e-06 1.4404498e-06 2.809236e-06
00000000: 41b7 2137 562b 8337 0142 b137 4dde 5e36
00000010: 263c 3837 82b1 ea36 fbda 9c36 43b3 0b37
00000020: 4f85 1537 3156 1037 c883 ad36 c2af a136
00000030: 8f1a d736 297e 9f36 0883 b936 bb07 4237
00000040: e8ab 8836 5dca 3636 564d 4336 e9ef 8836
00000050: 8a9a 1f36 d9eb d235 f3b5 9636 2fef 0437
00000060: bb5a 0536 3b83 fa35 78db a335 2a75 e235
00000070: 9d58 f835 b114 0636 7a55 c135 4f86 3c36

exp_avg f4 [1, 8, 1]
-0.00092242914 0.0002514041 -0.0007335723 -0.00043455805 0.00027700892 -0.00039974268 -0.00020805714 -0.000198829
00000000: 2ccf 71ba e3ce 8339 344d 40ba 65d5 e3b9
00000010: 823b 9139 8e94 d1b9 ea29 5ab9 c17c 50b9

exp_avg_sq f4 [1, 8, 1]
4.4311124e-05 5.547618e-06 2.5629731e-06 4.5935103e-06 7.5738667e-06 4.1198014e-06 8.057885e-07 1.1059459e-05
00000000: b5da 3938 ad25 ba36 8bff 2b36 f421 9a36
00000010: 0523 fe36 d33c 8a36 5d4d 5835 048c 3937

exp_avg f4 [4, 3, 1]
8.773318e-05 -0.00016515714 6.6076127e-06 0.0009246613 0.00043571802 0.0016700312 -0.00036526375 7.4614574e-05
-0.000999018 0.00067414256 0.0009734473 9.294537e-05
00000000: 64fd b738 082e 2db9 f6b6 dd36 f864 723a
00000010: 1571 e439 f3e4 da3a df80 bfb9 657a 9c38
00000020: 7bf1 82ba f1b8 303a f12e 7f3a aaeb c238

exp_avg_sq f4 [4, 3, 1]
1.9192723e-05 1.3941254e-06 5.1817235e-05 1.32118785e-05 1.1813612e-05 5.0498475e-05 2.0751957e-06 2.23105e-06
5.55725e-06 3.0472982e-05 2.0549935e-05 6.0964658e-06
00000000: 0f00 a137 c91d bb35 5556 5938 96a8 5d37
00000010: 1433 4637 53ce 5338 9743 0b36 26b9 1536
00000020: 6a78 ba36 3ba0 ff37 a662 ac37 3e90 cc36

exp_avg f4 [1, 8, 1]
-0.00022252643 -9.4276846e-05 -4.2780783e-05 -0.00019596754 -0.0013942549 0.00079514843 0.001185269 0.00021161612
00000000: fc55 69b9 7fb6 c5b8 846f 33b8 a37c 4db9
00000010: 6ebf b6ba 8271 503a 075b 9b3a 45e5 5d39

exp_avg_sq f4 [1, 8, 1]
1.8674216e-05 1.5734757e-06 2.0029165e-06 8.738671e-06 5.1208346e-05 6.111127e-06 0.00010991635 3.157115e-07
00000000: 93a6 9c37 3730 d335 d869 0636 4e9c 1237
00000010: 8bc8 5638 2e0e cd36 e482 e638 0f7f a934

exp_avg f4 [4, 8, 1]
-0.0013748546 0.0020472326 -0.0003191777 0.0015874001 0.0014481733 -0.0010733798 0.00024034253 -0.00088980724
0.0005237791 -0.0005219602 -0.001686822 -0.0020298671 -0.00035054373 0.0007438232 0.0016033546 0.0010162354
0.00065669656 -0.0010830926 0.0005533918 -0.0005069784 -0.0005636986 0.00073214027 -0.00041816584 0.0005247454
0.00023369069 -0.0004034785 0.00035819676 -9.1898786e-05 -0.00017204131 0.0004036259 -0.00032728826 0.00010318006
00000000: 7734 b4ba dd2a 063b 4e57 a7b9 4f10 d03a
00000010: a2d0 bd3a a6b0 8cba 7504 7c39 f441 69ba
00000020: 384e 093a 28d4 08ba 5b18 ddba 8507 05bb
00000030: 2fc9 b7b9 21fd 423a a727 d23a 3433 853a
00000040: 2926 2c3a 8ff6 8dba 7f11 113a bfe6 04ba
00000050: 2cc5 13ba 1aed 3f3a 453d dbb9 118f 093a
00000060: de0a 7539 f889 d3b9 5bcc bb39 c9b9 c0b8
00000070: fd65 34b9 c09d d339 e397 abb9 5f62 d838

exp_avg_sq f4 [4, 8, 1]
3.8333543e-05 4.694459e-05 2.182767e-05 2.810308e-05 5.2121974e-05 2.3986291e-05 2.1279671e-05 5.664306e-06
2.2061085e-06 1.7318899e-06 3.700258e-05 3.966146e-05 3.2799135e-06 4.120488e-06 3.4629807e-05 1.0710386e-05
3.0170593e-05 9.459983e-06 6.807799e-05 1.9214218e-05 2.8835495e-05 3.521513e-05 5.7534842e-05 3.1169864e-05
3.0219112e-06 1.2266567e-06 3.967656e-06 1.4731016e-06 3.0341532e-06 3.0362373e-06 3.101309e-06 5.541966e-07
00000000: 54c8 2038 5fe6 4438 901a b737 e8be eb37
00000010: 8b9d 5a38 2b36 c937 bf81 b237 0510 be36
00000020: a80c 1436 4973 e835 3833 1b38 2b5a 2638
00000030: 7c1c 5c36 b942 8a36 793f 1138 c2b0 3337
00000040: db16 fd37 51b6 1e37 18c5 8e38 382e a137
00000050: c1e3 f137 f5b3 1338 9151 7138 63bc 0238
00000060: 0acc 4a36 9aa3 a435 e821 8536 63b7 c535
00000070: 5b9e 4b36 29c2 4b36 1520 5036 1ac4 1435

exp_avg f4 [1, 8, 1]
-0.0006426158 -0.0005718898 9.122805e-05 -5.980457e-05 -0.0001360721 3.7824517e-05 -0.00065372087 0.00012858404
00000000: 3775 28ba e0ea 15ba b051 bf38 abd6 7ab8
00000010: 94ae 0eb9 c4a5 1e38 775e 2bba 84d4 0639

exp_avg_sq f4 [1, 8, 1]
3.1276088e-06 2.5798017e-06 3.0457835e-07 5.5196505e-08 1.5697273e-07 8.171673e-08 3.3212937e-06 1.8336785e-07
00000000: e9e3 5136 a820 2d36 ee84 a334 3311 6d33
00000010: 568c 2834 3f7c af33 64e3 5e36 c5e3 4434

exp_avg f4 [4, 4, 1]
-0.00033724823 -8.647779e-05 -0.00024740063 0.0009640748 -0.000105228755 8.105913e-05 -0.00016389757 0.0005460551
0.00029085742 0.0001190476 0.0003603502 -0.00081926264 1.8513614e-05 -7.715073e-05 2.1503598e-05 -8.1729864e-05
00000000: b1d0 b0b9 695b b5b8 8db5 81b9 f7b9 7c3a
00000010: 42ae dcb8 4afe a938 ebdb 2bb9 2325 0f3a
00000020: 397e 9839 32a9 f938 63ed bc39 c9c3 56ba
00000030: af4d 9b37 fccb a1b8 a062 b437 6366 abb8

exp_avg_sq f4 [4, 4, 1]
3.330288e-06 1.6093883e-06 2.42616e-06 4.3706123e-06 1.7788718e-06 1.4418206e-06 1.288341e-06 2.2644042e-06
3.9047327e-06 2.2392364e-06 2.8564382e-06 3.7107197e-06 1.2518343e-07 2.0395375e-07 2.2313861e-07 2.5207692e-07
00000000: ea7d 5f36 2902 d835 1dd1 2236 46a7 9236
00000010: 92c1 ee35 9484 c135 0feb ac35 2bf6 1736
00000020: 6605 8336 ca45 1636 3cb1 3f36 ae05 7936
00000030: 296a 0634 61fe 5a34 e097 6f34 3055 8734

exp_avg f4 [1, 8, 1]
0.0009467556 -5.5743338e-05 -3.223007e-05 4.994953e-05 3.8911046e-05 -5.3082444e-05 -0.0005382989 0.00014802278
00000000: b12f 783a f4cd 69b8 c62e 07b8 e680 5138
00000010: 6b34 2338 d7a4 5eb8 a11c 0dba 9036 1b39

exp_avg_sq f4 [1, 8, 1]
8.066708e-06 2.2326067e-07 1.2416903e-06 5.9792256e-07 7.292151e-08 1.8277464e-07 1.6255832e-06 2.65833e-07
00000000: 3f56 0737 6db9 6f34 27a8 a635 ed80 2035
00000010: 0699 9c33 b640 4434 9d2e da35 cfb7 8e34
